examples/typescript/linkedin_ai_assistant/.chrome-profile/screen_ai/127.1/screen2x_model.tflite (tflite, 928208 bytes, 79 tensors)

web_mpnn/normalizer/truediv;web_mpnn/normalizer/Maximum f4 [1, 26]
000000 80 96 18 4b cc ac f5 40 8f da 0f 3d 68 81 8c 3f
       1e+07 7.6773434 0.035120543 1.0976992
000010 58 69 c7 3b fa 01 1d 3f 58 1f 00 3f 0c de bb 3c
       0.006085556 0.6133114 0.50047827 0.022933029
000020 5b 93 54 3e 24 7f a1 3f 37 df 34 3e cf f7 2d 40
       0.20759337 1.2616925 0.17663275 2.71825
000030 d5 5a 0a 3e 45 92 3f 40 0b ec 8a 41 41 f9 28 40
       0.13511212 2.9933026 17.365255 2.6402133
000040 07 cb 5f 3a e2 63 3f 45 cc 0d 00 40 a4 50 e8 3c
       0.00085370283 3062.2427 2.000842 0.028358765
000050 16 46 e8 3c f7 0d 29 3f f9 4f 29 3f 25 be a0 3f
       0.028353732 0.66036934 0.66137654 1.2558028
000060 05 83 f7 40 98 74 01 40
       7.7347436 2.0227413

EncodeProcessDecode/MLPGraphNetwork/graph_network/node_block/mlp/linear_4/Add/ReadVariableOp f4 [64]
000000 d1 9e a7 bf c9 b8 87 be cf b6 8a bf e8 b5 c1 bf
       -1.3095342 -0.26508167 -1.0837039 -1.5133638
000010 b4 a3 b0 be 10 94 55 3f 5b ab d7 3f 7f 92 ab 3e
       -0.34499896 0.8342905 1.6849169 0.33510205
000020 75 f0 f0 ba c5 dc aa be 5f 9d 8c bf 36 51 80 be
       -0.0018382209 -0.3337156 -1.0985526 -0.2506196
000030 e1 7b aa bf e8 ad c2 3f 38 b6 f0 3e b9 94 ea be
       -1.3319055 1.5209322 0.47014022 -0.4581659
000040 81 9c b8 be 2c 15 9f bd d6 75 86 bf 0f d8 33 bf
       -0.36056903 -0.0776771 -1.0504711 -0.70251554
000050 c6 4a 8c bf e2 47 8c bf 04 75 59 be 07 67 07 40
       -1.0960319 -1.0959437 -0.21236044 2.1156633
000060 71 1f 03 bf 22 81 89 bf 46 33 c8 3e d6 b7 04 bf
       -0.5121985 -1.0742533 0.3910162 -0.5184301
000070 da 26 f9 bf 1f 5f 54 3e 8a f6 1d bf 9b 7e 83 3f
       -1.9464982 0.20739411 -0.61704314 1.0273012
000080 f8 ea 57 3f 66 5a 7b bf e1 b9 93 bd 1b 3b a8 bf
       0.8434291 -0.9818481 -0.07213188 -1.3143038
000090 4b e0 d6 3f 88 e4 26 bf 2b 76 94 3e 99 3b 93 3c
       1.6787199 -0.6519246 0.28996405 0.017972754
0000a0 98 be f6 3e 37 61 21 bf 94 2c a4 3e 15 d3 74 3e
       0.48192286 -0.63038963 0.3206526 0.23908646
0000b0 96 f8 05 bf dd 95 59 bf 5f df e2 bf b3 f3 83 bf
       -0.5233244 -0.849943 -1.7724417 -1.0308746
0000c0 fc c3 d7 3f 3b 86 90 bf fa df 97 bd 88 a0 d9 bd
       1.6856685 -1.1290964 -0.07415767 -0.10626322
0000d0 fd 93 6e bd 52 37 c4 3d a2 27 b6 be 13 25 7d bd
       -0.0582466 0.09580864 -0.35577112 -0.061802935
0000e0 ce bb 0a 3f b3 0b 3d bd 4b da 35 3f 77 29 d3 bc
       0.5419282 -0.046153735 0.71036214 -0.025776608
0000f0 69 61 29 bf b9 74 c2 bf 71 ff 69 3f d1 97 1f c0
       -0.6616426 -1.5191871 0.914054 -2.4936411

EncodeProcessDecode/MLPGraphNetwork/graph_network/node_block/mlp/linear_3/Add/ReadVariableOp f4 [64]
000000 b8 fa 9e 3d 10 db 01 c0 72 db 39 c0 ed 08 70 c0
       0.077626646 -2.0289955 -2.9040189 -3.7505448
000010 26 5d 18 c0 14 f4 85 3f 91 52 67 bd 05 62 96 3e
       -2.3806853 1.0465112 -0.056475226 0.29371658
000020 38 e9 11 be 47 42 dd 3f 86 e1 30 bf b8 c9 c1 3f
       -0.14249122 1.7285851 -0.6909412 1.5139685
000030 89 12 ed 3f 4a ff 8c bf 49 fd 1e c0 e7 6a d3 3d
       1.8521281 -1.1015408 -2.4842093 0.103231244
000040 6d fe 3e c0 cc 40 27 3f 5b d1 43 bf 3a 2a 5f be
       -2.984279 0.6533325 -0.76491326 -0.21793452
000050 bd a6 7e 3f b2 2a fd bf e3 d5 23 c0 67 80 c7 be
       0.9947317 -1.9778655 -2.5599296 -0.3896515
000060 5a 95 3e bf f3 fb 64 40 93 0f 98 3f 5c 13 99 3e
       -0.7444664 3.5778778 1.1879753 0.29897583
000070 8e 91 65 3e d5 e2 f7 be 75 31 0d 3e 80 0d 95 bf
       0.22418806 -0.48415247 0.13788398 -1.1644745
000080 b3 25 16 c0 91 12 8e 3f 95 c0 f5 3e 65 32 9a bf
       -2.346051 1.1099416 0.4799849 -1.2046629
000090 89 22 8f 3e 6b dc 5c 3d 9d 06 f6 bf 4e 80 78 3f
       0.27956036 0.053921144 -1.9220768 0.9707078
0000a0 c3 c8 ba bd da 05 b5 bd ea 6e 66 c0 ef b3 65 bd
       -0.091203235 -0.08839007 -3.6005197 -0.0560798
0000b0 83 1e 1e bd 26 e2 4c bf 62 ad 2e 3f 74 94 f1 3e
       -0.038603317 -0.80032575 0.6823331 0.47183573
0000c0 1f 9e 46 be 23 da 0d c0 72 d6 eb bf fc 04 93 bd
       -0.19396256 -2.216439 -1.8424819 -0.07178685
0000d0 c7 64 a2 3f 5f 3d 70 be 09 4e 89 3d 15 83 2e be
       1.2687005 -0.23460911 0.06704337 -0.17042191
0000e0 56 a8 7b bc e0 4f 0b 40 2c 16 95 3e 64 f4 51 bf
       -0.015359959 2.1767502 0.29118478 -0.82013535
0000f0 2e f0 5a bf ab b2 ca bf 56 61 d8 be 48 a6 1e c0
       -0.85522735 -1.5835775 -0.4226176 -2.478899

EncodeProcessDecode/MLPGraphNetwork/graph_network/node_block/mlp/linear_2/Add/ReadVariableOp f4 [64]
000000 35 fd 15 c0 d3 84 01 3f be 4c 6e c0 26 bb 9d be
       -2.3435795 0.505933 -3.723434 -0.30806845
000010 a3 59 06 3f 9b 96 47 40 68 cd 94 39 12 39 68 c0
       0.52480525 3.1185672 0.000283818 -3.6284833
000020 57 b4 06 c0 57 c3 9f be ec d8 ed bf 97 59 d5 be
       -2.104757 -0.3120372 -1.8581824 -0.41669914
000030 fe 3e 12 3f ee 91 01 be b8 91 36 c0 96 75 37 3f
       0.5712737 -0.12653324 -2.852644 0.71663797
000040 83 21 09 bd 1b 5e 7a c0 77 f4 16 40 7c 0d a4 3f
       -0.033479225 -3.9119937 2.358671 1.2816615
000050 8b 4a bd c0 e4 f2 45 c0 da 83 20 40 66 f5 c3 be
       -5.9153495 -3.0929499 2.5080476 -0.38273162
000060 a3 9c 51 c0 0b da 0e 3f 85 73 e3 bf 98 2c 84 bf
       -3.2751853 0.5580146 -1.7769629 -1.0326109
000070 02 08 91 c0 fa e7 33 40 d3 aa dd be 6a 4d 8a c0
       -4.5322275 2.8110337 -0.4329439 -4.32195
000080 40 09 f4 3f 53 17 19 3f c7 8d 03 c0 e2 d9 9d 3f
       1.9065323 0.59801215 -2.0555284 1.2332118
000090 42 63 51 40 06 c7 43 c0 82 cc f1 be a0 6a 48 bf
       3.2716832 -3.0590224 -0.4722634 -0.78287697
0000a0 10 73 23 3e da 03 d8 c0 d3 c5 2b 40 4f 7a 15 c0
       0.15961862 -6.75047 2.6839492 -2.3355901
0000b0 fa c6 8d 40 40 18 e1 3f e3 7b 30 c0 5a 8f 7b bf
       4.430539 1.7585526 -2.7575614 -0.9826561
0000c0 18 b8 70 c0 2c 25 aa 3f ec ce 62 40 2e 28 e8 3f
       -3.7612362 1.3292594 3.5438795 1.8137262
0000d0 28 3c 09 3f 05 a4 43 c0 ef e3 69 bf 15 8f 66 c0
       0.53607416 -3.056886 -0.91363424 -3.602483
0000e0 e3 cd 60 c0 39 c5 ec 3e 67 80 18 40 3a 8c dd c0
       -3.5125663 0.4624422 2.382837 -6.9233675
0000f0 cb b2 41 3f 20 8e 84 c0 c5 4e 35 3f cf ef 08 c0
       0.7566344 -4.1423492 0.7082332 -2.1396368

EncodeProcessDecode/MLPGraphNetwork/graph_network/node_block/mlp/linear_1/Add/ReadVariableOp f4 [64]
000000 e4 a2 c4 bf 42 04 aa 40 31 b7 0d bf c6 f1 c2 3e
       -1.536221 5.3130198 -0.5535765 0.38075083
000010 3a 55 b8 c0 66 08 52 bf dc 62 4e c0 ba cc 9f 3e
       -5.7604036 -0.82044065 -3.224784 0.3121088
000020 59 13 be c0 60 c6 01 c0 c9 a7 a3 3f 33 f9 da bf
       -5.939862 -2.0277328 1.2785579 -1.71073
000030 c0 c6 81 bf 3a 56 83 3f 36 e5 8c 40 d8 e6 28 c0
       -1.0138779 1.0260689 4.40298 -2.6390896
000040 87 d6 5d 3f aa 74 cb c0 da 2d f4 bf 54 c5 5a bf
       0.8665547 -6.357991 -1.9076493 -0.8545735
000050 e4 2e 87 c0 93 96 df be c1 62 0b 3f 30 a5 82 be
       -4.224474 -0.43669567 0.5444756 -0.25516653
000060 41 fc 3e bf ff 55 44 c0 11 93 98 3f 1e a1 14 c0
       -0.7460366 -3.0677488 1.1919881 -2.3223338
000070 cc 69 39 3f 04 ed df bf a9 8c 3f c0 7c 6f fe bf
       0.7242706 -1.7494206 -2.9929602 -1.9877772
000080 8a bf 86 3f de 3e 8c 3f bf a8 39 3f f3 15 5f c0
       1.0527203 1.0956686 0.7252311 -3.4857147
000090 2e 6c 56 c0 d9 cf 7b bf 0f 67 0a c0 67 3f b6 bf
       -3.3503528 -0.98364025 -2.1625402 -1.4238099
0000a0 8d f5 6f c0 09 f3 b9 3f 14 2d 0b 40 f6 34 a3 bf
       -3.7493622 1.4527293 2.1746264 -1.2750537
0000b0 66 82 24 c0 68 78 a6 3f 23 1c 79 bf a1 6e ae 40
       -2.570459 1.3005495 -0.9730856 5.4510045
0000c0 d2 08 34 40 9c ad 8c 40 36 f2 07 40 d8 5b 69 40
       2.8130383 4.3961926 2.1241584 3.6462307
0000d0 98 da 32 bf 9f 11 e1 be ce 8b 08 c0 49 ee b8 bf
       -0.698648 -0.43958756 -2.133533 -1.4447719
0000e0 46 12 14 c0 d3 3c 40 bf 5a 79 0b 3f de 9b f9 3e
       -2.3136153 -0.7509281 0.5448204 0.4875173
0000f0 9c ed 47 be 88 85 0f 3f bd bc 76 c0 b6 82 ae bf
       -0.19524235 0.5606313 -3.8552697 -1.363364

EncodeProcessDecode/MLPGraphNetwork/graph_network/node_block/mlp/linear_0/Add/ReadVariableOp f4 [64]
000000 f9 d4 4e 40 aa 0b 14 c0 46 a7 11 bf d7 70 52 3f
       3.2317488 -2.313212 -0.56895864 0.8220343
000010 13 ca de be c4 40 45 be 87 04 95 40 45 53 d7 3f
       -0.43513545 -0.19262987 4.6568027 1.6822287
000020 1c a3 5b 40 b1 50 65 3f 00 a9 1f c0 32 cf 0a 40
       3.4318304 0.8957625 -2.49469 2.1688962
000030 8f 15 6a bf ba fa 65 3d a8 ad 37 3f 95 65 40 40
       -0.91439146 0.056147315 0.71749353 3.0062
000040 fc 93 41 40 bb 3a 23 40 66 47 03 3c 5e ea e2 3f
       3.0246572 2.5504596 0.008012628 1.7727773
000050 6d fd 3a 40 97 7e 06 3e 91 0c 66 3f 01 d9 4d be
       2.921718 0.13134228 0.89862925 -0.20102312
000060 01 a0 85 3f a2 46 0f 40 a0 f8 3d be 25 43 a7 3e
       1.0439454 2.238686 -0.18551874 0.32668415
000070 ec d3 6a be 08 2a a9 3f 5c db 72 3f 26 83 b8 3e
       -0.22932404 1.3215952 0.94865966 0.36037558
000080 61 47 3a 3f 3b 47 3c c0 10 fa 51 bc 82 8b a8 bf
       0.72765166 -2.9418476 -0.012815967 -1.3167574
000090 8b 6f 10 bf 7a b6 7c c0 c1 85 1b 40 13 d3 ea bf
       -0.564202 -3.9486375 2.4300387 -1.8345665
0000a0 bf 5f d0 be 2a a7 82 3f 66 95 49 40 fb c9 04 40
       -0.40698048 1.0207264 3.1497436 2.074828
0000b0 90 64 95 3e 8f 10 89 3f 0f ee f0 3e 93 23 57 c0
       0.29178286 1.0708178 0.47056624 -3.3615463
0000c0 2c 5d 10 bf 83 e2 ac 3f 9e b5 80 3f 0e 44 2e 3d
       -0.5639217 1.3506626 1.0055425 0.04254537
0000d0 22 37 0d bf 15 c9 a8 3f 12 f8 9c 3f 11 42 a9 3d
       -0.5516225 1.3186365 1.2263205 0.08264554
0000e0 d3 ca 5d 3b 58 06 3d c0 be c3 95 bd 31 fd 0a 40
       0.0033842816 -2.9535122 -0.073127255 2.1717036
0000f0 0d f8 5f 40 d1 32 36 3e 0c 05 e4 3f 4e bc 55 40
       3.4995148 0.17792822 1.781404 3.3396182

EncodeProcessDecode/MLPGraphNetwork/graph_network/node_block/layer_norm/batchnorm/ReadVariableOp f4 [64]
000000 44 d7 ab 3f fc e8 8c c0 42 fc 51 c0 d5 78 09 c0
       1.3425069 -4.4034405 -3.2810216 -2.148
000010 e5 23 fa 3e bd e8 80 c0 78 fa dd bf 27 b4 3d bf
       0.4885551 -4.0284104 -1.7342062 -0.74103016
000020 42 be 82 c0 b6 fc 23 be 54 5a 67 bf 6f 0c d0 c0
       -4.085725 -0.1601437 -0.90372205 -6.501518
000030 78 3f 23 c0 1c c9 a1 c0 6b 3a c6 c0 7a a6 e4 be
       -2.5507488 -5.0557995 -6.194631 -0.44658262
000040 d9 8b 0a c0 bd ef 50 bf 2d 34 67 40 df 4d 08 40
       -2.1647856 -0.8161581 3.6125596 2.1297529
000050 e1 14 1f bf f4 15 b9 3e 3d a4 a1 3f e4 b9 7a c0
       -0.62141234 0.3614956 1.2628247 -3.9175959
000060 d0 8f fe bf 56 7b c9 c0 b6 10 72 be e8 87 7b be
       -1.9887638 -6.2963057 -0.23639187 -0.24563563
000070 c2 2e a5 c0 86 d3 dd c0 aa 98 36 c1 ec f9 a0 bf
       -5.1619577 -6.9320707 -11.4122715 -1.257627
000080 a6 a8 e8 c0 10 78 5c c0 a5 9c 37 bf fb c5 00 40
       -7.270587 -3.444828 -0.71723396 2.0120838
000090 ca dc 53 3f 87 f0 3d 40 b3 89 a2 bf db 61 92 3f
       0.8275877 2.9678056 -1.2698272 1.1436113
0000a0 0b 2e 50 c0 97 cc 4f 3f 10 9e 92 c0 7a b8 1e bf
       -3.2528102 0.81171554 -4.5817947 -0.6200024
0000b0 5b 83 5f c0 cc 6a 82 3f 2e 72 b7 3f e4 5f 06 bf
       -3.4923923 1.0188842 1.433172 -0.5249007
0000c0 5a 85 06 c1 40 25 41 c0 49 6a 4a c0 40 d6 32 c0
       -8.407557 -3.0178986 -3.1627371 -2.7943268
0000d0 6a 85 dd bf c0 85 47 3f 47 e6 a3 c0 42 08 c1 40
       -1.730634 0.7793846 -5.12186 6.032258
0000e0 4f e7 86 c0 a7 61 c1 bf b0 c0 15 c1 9d 65 37 c0
       -4.215736 -1.5107926 -9.359543 -2.865577
0000f0 5a 12 19 c0 4a d8 06 40 18 59 82 c0 76 86 83 bf
       -2.391745 2.1069512 -4.0733757 -1.0275409

EncodeProcessDecode/MLPGraphNetwork/graph_network/node_block/layer_norm/batchnorm/mul/ReadVariableOp f4 [64]
000000 35 03 16 41 a2 2c ed 40 0f 2e de 40 00 79 23 41
       9.375783 7.4116983 6.9431224 10.217041
000010 f5 eb bd 40 49 04 e2 40 77 59 9c 3f 3b 19 c4 40
       5.9350533 7.063023 1.2214803 6.12808
000020 9f 7a 06 41 a6 07 a9 40 d8 aa a0 40 e0 b5 e6 40
       8.404937 5.2821836 5.020855 7.2097015
000030 d1 c6 42 41 9a 24 07 41 c1 11 0c 41 31 be 13 41
       12.173539 8.446436 8.754334 9.233933
000040 a0 b8 ff 40 be ec 39 40 8f 04 d3 40 ea e7 5f 40
       7.991287 2.9050746 6.5943065 3.49853
000050 08 a4 cf 40 a3 38 43 40 17 a2 f9 40 87 95 2b 41
       6.4887733 3.0503318 7.8010364 10.724006
000060 46 bb 3c 41 43 cb 19 41 ff b4 8a 40 90 48 49 41
       11.795721 9.612124 4.3345942 12.580215
000070 e6 6c 1e 41 6f 67 1e 41 6a 10 70 41 6e 7c 36 41
       9.901587 9.900252 15.004007 11.405378
000080 d2 3b 0c 41 0e 1b 63 41 de 7b 4b 40 d8 bd dc 40
       8.764605 14.194105 3.1794353 6.8981743
000090 54 fd 22 41 3d 08 dd bf 5c b9 21 41 3e 67 95 40
       10.186848 -1.7268139 10.107754 4.668853
0000a0 c1 d3 19 41 3f 50 c2 40 6a 62 72 41 ec a0 9d 40
       9.614198 6.0722957 15.149027 4.925894
0000b0 ff 49 41 41 6f dc 73 40 02 ca d9 40 de ed 93 40
       12.080565 3.8103292 6.805909 4.6227865
0000c0 00 8e 42 41 d3 41 07 41 01 44 96 40 37 7e 45 41
       12.159668 8.45357 4.6958013 12.343314
0000d0 42 a8 83 40 3e bd cc 40 29 80 ea 40 97 61 8d c0
       4.1142893 6.398101 7.3281446 -4.418163
0000e0 b8 9b a9 40 33 c7 d9 40 ea ed 28 41 12 02 27 41
       5.3002586 6.8055663 10.5580845 10.438005
0000f0 74 7e dd 40 6e 7c ff 40 83 41 a4 40 87 e8 13 41
       6.921686 7.983939 5.132997 9.244269

EncodeProcessDecode/MLPGraphNetwork/graph_network/global_block/mlp/linear_4/Add/ReadVariableOp f4 [64]
000000 3e 0b a9 bd 0e ec 11 3b 2a de 85 bd 63 20 59 be
       -0.082540974 0.0022265944 -0.06536515 -0.21203761
000010 84 f0 3d be bb 33 58 bd 7f 4c 86 bd b8 3a 95 bc
       -0.1854878 -0.05278371 -0.06557559 -0.018216476
000020 ce 13 66 be 5e 3b d9 be 05 2c d1 3c a0 5e 26 bd
       -0.22468492 -0.42428106 0.025533685 -0.040617585
000030 4f e5 97 be 87 0b c1 be ec fa dd be f9 53 75 bd
       -0.29667136 -0.37704107 -0.433555 -0.059894536
000040 85 a7 64 be 27 15 8d bd 34 9b c6 bc d2 d4 07 be
       -0.22329529 -0.068888 -0.024243928 -0.13264778
000050 b9 f5 48 3e 9d 2e 9c be 54 e1 02 bd f6 dd 15 bd
       0.19624986 -0.30504313 -0.03195317 -0.03658863
000060 3d 14 a8 3f dd aa 86 be c9 08 f0 ba 88 9c 0e bf
       1.3131176 -0.26302233 -0.0018313165 -0.557076
000070 41 3d 70 be ea 72 ec 3b 79 e6 49 bd e0 30 33 bc
       -0.23460867 0.0072158473 -0.04929206 -0.010936946
000080 da f9 25 3f 3e 3e ec bc 51 aa 2b 3f 84 10 91 bb
       0.6483437 -0.028838273 0.6705676 -0.0044270176
000090 52 21 3a bb 53 b0 60 bd 42 ee 9e bd 94 8a a0 be
       -0.0028401208 -0.054855656 -0.07760288 -0.31355727
0000a0 c2 df f3 bc ff ee 56 bd f2 32 40 bd d9 01 a3 b8
       -0.029769782 -0.05247402 -0.046923585 -7.77279e-05
0000b0 12 cc 64 bd cb e9 33 bc 99 9c 60 bd b5 a3 fe bd
       -0.05585868 -0.010981034 -0.054836843 -0.124335684
0000c0 21 e9 b2 bc 5e c2 f4 bc cc c0 47 bd 98 ff 36 be
       -0.02183968 -0.029877838 -0.04876785 -0.17870939
0000d0 7e 0f b8 bd 8e 5d 36 bd 72 42 e7 bd f1 94 2d be
       -0.0898733 -0.044522814 -0.1129197 -0.16951348
0000e0 d3 97 be bd a8 4c 36 bf 1a 12 33 3c 1d 34 86 be
       -0.09306302 -0.7121072 0.010929609 -0.26211634
0000f0 8e 18 25 be 17 c9 51 bd 6a 9d b6 bb 5a b4 f1 bc
       -0.16122648 -0.051217165 -0.0055729644 -0.029504944

EncodeProcessDecode/MLPGraphNetwork/graph_network/global_block/mlp/linear_3/Add/ReadVariableOp f4 [64]
000000 dd 59 d8 bc 3b 31 44 bd d9 40 5e bf 3b 40 8a 3e
       -0.026410038 -0.047898512 -0.868177 0.2700213
000010 ae e2 39 bf da e3 60 3f c7 d8 13 bc 30 98 0f bd
       -0.7261151 0.87847674 -0.009023852 -0.035057247
000020 59 95 da 3d 19 b4 52 3e 10 ef e5 3d d7 c4 11 bd
       0.10673017 0.20576514 0.11227238 -0.03558811
000030 23 6b aa bc 26 b9 6d 3f 90 28 ee 3d cc f4 90 3f
       -0.02080304 0.9286064 0.116288304 1.1324706
000040 94 55 2a bc 76 69 c5 bd cf 02 a9 be 1c b7 47 bd
       -0.01039638 -0.09639256 -0.33009955 -0.04875861
000050 f6 92 9e bc fa 81 51 3f 5d f9 6b be 2c a1 4a bd
       -0.019357186 0.81838953 -0.23044343 -0.04947011
000060 29 71 b0 bc 00 00 00 00 26 eb 95 3f c3 e6 46 3f
       -0.021538334 0.0 1.1712387 0.77695864
000070 d0 6f 1d bc 8e d4 89 3f 9c 4a ca bc 53 73 8d 3e
       -0.009609178 1.0767992 -0.02469378 0.27627048
000080 81 47 7c bd 27 9c 49 bd 73 ae f6 3d 71 c3 fb bc
       -0.06159163 -0.049221184 0.12044992 -0.030732842
000090 84 ab af bd 22 2c 14 bf 7f f1 93 be 76 c3 af be
       -0.08577636 -0.5787984 -0.28895184 -0.34328812
0000a0 bf a5 19 bd 36 18 5e bf 01 09 79 bc f5 e6 a1 3e
       -0.037511583 -0.8675569 -0.015199901 0.3162152
0000b0 46 15 19 3f 06 5b da 3e d0 56 a1 3e 57 4d 3d 3f
       0.59798086 0.4264757 0.31511545 0.73946136
0000c0 4e e1 76 3f f6 14 2c 3f aa 30 98 3f 32 17 bd bc
       0.9643754 0.67219484 1.1889851 -0.02308235
0000d0 ad 6d 40 3e ff 52 67 bd 3e 88 16 bd e9 63 fb be
       0.18791838 -0.056475636 -0.036751024 -0.49099663
0000e0 74 e8 84 3f 3a 9c 07 bd 57 da e1 3e 75 e7 e4 bc
       1.0383439 -0.033107974 0.44111893 -0.027942399
0000f0 6a 90 4d 3f 07 2f ce 3e 70 58 b0 3a 01 c7 fb bc
       0.80298483 0.40270254 0.0013454091 -0.03073454

EncodeProcessDecode/MLPGraphNetwork/graph_network/global_block/mlp/linear_2/Add/ReadVariableOp f4 [64]
000000 c7 ad 70 be d1 62 9b bf 4a 31 eb bb e4 41 78 bc
       -0.23503791 -1.2139531 -0.0071775066 -0.015152428
000010 82 6a 61 ba d8 29 37 be 6c 17 4f bd 4d 9b 50 bf
       -0.000859894 -0.17887056 -0.050559446 -0.8148697
000020 8a e8 37 40 db 65 23 bd ea 24 2d 40 1e a6 22 3f
       2.873568 -0.03989206 2.705378 0.63534725
000030 be 8f 81 bc 23 3b 24 40 7b e0 b5 bc 43 a4 69 bb
       -0.015815612 2.5661094 -0.022201767 -0.0035650886
000040 25 3b 95 bd a7 67 0e 40 33 a4 df 3f 7a cc 43 3f
       -0.072866715 2.2250764 1.7471985 0.7648388
000050 1a ec 04 3e 6b c7 90 bd e4 45 16 3b ef 77 91 be
       0.1298069 -0.07069286 0.0022929842 -0.28411815
000060 03 b0 dc bd b0 81 71 bf 67 a7 02 40 5f 7f 87 bf
       -0.10775759 -0.9433851 2.0414674 -1.0585746
000070 d6 75 fd 3a 3c c9 43 bf 48 12 22 be fd 32 fb 3c
       0.0019337486 -0.76478934 -0.15827286 0.030663962
000080 0d b3 1a bd 3d d5 c7 bd 87 54 16 bf 79 92 b8 bd
       -0.037768412 -0.09757469 -0.5872273 -0.090123124
000090 6c 49 0a bf 2e 5a 00 bc a1 72 1b 40 1a 98 f1 3c
       -0.5401828 -0.0078340005 2.4288714 0.029491473
0000a0 98 13 9b be b4 23 c5 bd 88 71 b8 3d e3 90 e3 3f
       -0.30288386 -0.096259505 0.09006029 1.7778591
0000b0 47 1b a7 bf 2c 4a b6 bc 75 50 a5 bf 1c 0f 97 bf
       -1.3055199 -0.022252165 -1.2915179 -1.1801486
0000c0 6c 97 c0 bd 5f d8 2c bd dd 87 16 bd 50 5b 47 bd
       -0.094038814 -0.042198535 -0.036750663 -0.048671067
0000d0 5a 92 ee 3e 7e 81 02 bd 06 9b c3 3d 03 29 08 40
       0.46596032 -0.031861775 0.09551053 2.1275032
0000e0 be 31 81 bc 9c 7d 58 bd 56 2e a8 3f 61 40 f5 bd
       -0.01577079 -0.052854165 1.3139141 -0.1197517
0000f0 eb c1 1e bf 94 f6 a7 3f 3f 7d 2d bd ee e0 7d bc
       -0.62014645 1.3122125 -0.042355772 -0.015495522

EncodeProcessDecode/MLPGraphNetwork/graph_network/global_block/mlp/linear_1/Add/ReadVariableOp f4 [64]
000000 56 e2 66 40 eb 95 7b 3e 08 4d 9c bf ab b8 cd bd
       3.6075644 0.24568908 -1.2211008 -0.10044988
000010 35 d4 21 3c 29 d0 53 40 7b 4d 08 c0 6d 67 95 40
       0.009877254 3.30958 -2.129729 4.668875
000020 aa 24 16 c0 0b 6d 2e 3f 07 9a aa bc d7 9b 47 40
       -2.3459878 0.68135136 -0.0208254 3.1188867
000030 f7 ad 78 40 cf 8b db bc 10 d7 df ba 3f 52 56 bd
       3.885618 -0.026800064 -0.0017077643 -0.05232453
000040 eb de a8 3c ad 8c 3c 3d e7 71 99 3f 96 f5 8f ba
       0.020614108 0.046032596 1.1987885 -0.0010983224
000050 f5 8d 25 c0 d0 e9 bf bb 0d ff 4c bd 34 1e 7e 40
       -2.5867894 -0.00585673 -0.050047923 3.9705935
000060 b6 b4 bc bd 74 a9 05 c0 69 49 10 c0 1c 9a 99 40
       -0.092141554 -2.0884676 -2.2544806 4.800062
000070 14 cb 78 c0 6a 28 4b c0 78 13 52 bd f1 84 ca bd
       -3.887395 -3.1743417 -0.051288098 -0.09888638
000080 84 1e 75 3e 44 ef 0b bd 17 b7 35 c0 6e b3 45 bf
       0.23937422 -0.03416373 -2.8393 -0.7722691
000090 7e 7f 14 3f 2d ce 37 c0 80 72 50 40 8b 31 52 c0
       0.5800704 -2.871959 3.2569885 -3.2842739
0000a0 60 fb 88 bf d0 f9 03 bc 10 05 8e 3e e3 01 b0 be
       -1.0701714 -0.008055165 0.27738237 -0.3437644
0000b0 da bf 49 bf 16 a3 c5 be 92 1c ed 3e b1 aa 9f 3e
       -0.7880837 -0.38600987 0.4631086 0.31184915
0000c0 83 1f d0 bc 1c 2a ae 40 49 57 1e c0 f4 3f d8 bf
       -0.025405651 5.4426403 -2.4740775 -1.6894517
0000d0 29 75 b7 bf e1 27 25 c0 4b 14 da 3d e8 c7 80 3e
       -1.433263 -2.580559 0.10648402 0.25152516
0000e0 88 60 a7 bc 2b d4 af 40 88 40 a9 3f 6d ac 94 40
       -0.020431772 5.4946494 1.3222818 4.646048
0000f0 be 5f 8d 40 6a 19 de 3f ad 35 28 40 47 33 26 c0
       4.4179373 1.7351506 2.628276 -2.5968797

EncodeProcessDecode/MLPGraphNetwork/graph_network/global_block/mlp/linear_0/Add/ReadVariableOp f4 [64]
000000 47 03 ba bf 73 dc 4d c1 00 15 04 c1 d2 2b d9 c0
       -1.453225 -12.866321 -8.255127 -6.786599
000010 de b0 3b 40 80 e5 4c 3f 6b ec e5 3f 2e 79 5f 41
       2.93267 0.8003769 1.7962774 13.967085
000020 10 90 dd bb b5 1d 38 c0 72 23 6a 41 f7 1e 71 c0
       -0.0067615584 -2.8768132 14.633654 -3.767515
000030 11 c6 2f c0 7a bc df 40 de 87 18 c1 6a 37 aa bc
       -2.746464 6.9917574 -9.533171 -0.020778377
000040 36 cb 97 bd 17 2d f7 c0 ad 51 08 bb 96 5b 42 bf
       -0.07411806 -7.724254 -0.0020800636 -0.75921
000050 e1 7c 53 41 98 e3 25 41 90 ab a7 40 54 54 5e bc
       13.217988 10.368065 5.2396927 -0.01356991
000060 3e 08 56 bd e2 c5 53 c0 f8 0f f2 40 4a e8 e1 bc
       -0.052253954 -3.3089528 7.5644493 -0.027576584
000070 b0 24 86 bd 3f 6e b8 bb e1 25 dd bc 04 b8 51 41
       -0.06549966 -0.0056283767 -0.026995601 13.107426
000080 79 62 a9 c0 42 e6 fe bf 88 1f 07 bd 81 6d 68 bf
       -5.2932706 -1.9914019 -0.032989055 -0.9079209
000090 65 04 60 c0 69 04 9f 40 29 3a b1 bc 96 04 20 41
       -3.5002682 4.9692883 -0.021634178 10.00112
0000a0 27 8b c3 3b 74 d7 31 41 33 71 7a 41 7c 43 8f 40
       0.005967516 11.115101 15.652637 4.476988
0000b0 d7 26 23 c1 2d c6 64 41 90 3b bc 40 9c 28 0f c1
       -10.196982 14.298383 5.882271 -8.947414
0000c0 ba 7e 8b bd 43 60 59 c0 35 76 38 bf ba bb e2 40
       -0.068112805 -3.3965003 -0.7205537 7.085416
0000d0 85 9b 40 bd c0 65 a0 3f 94 f6 d5 3b ff 93 ec 3f
       -0.047023315 1.2531052 0.0065296385 1.8482665
0000e0 88 e4 17 bd 92 eb 06 be 3a 8a 1c c1 c9 34 42 41
       -0.03708318 -0.131758 -9.783747 12.137887
0000f0 d5 d6 c3 bf 77 49 c3 3b 82 87 d2 3f b9 a1 8e 40
       -1.5299937 0.0059596854 1.6447604 4.4572415

EncodeProcessDecode/MLPGraphNetwork/graph_network/global_block/layer_norm/batchnorm/ReadVariableOp f4 [64]
000000 e9 c2 4e 3f 22 12 61 3f 16 a4 28 3f d0 c7 10 3f
       0.8076616 0.87918293 0.65875375 0.5655489
000010 3a 47 23 3f 9d e4 5f 3f 44 b8 23 3f 44 e6 3c 3f
       0.6378056 0.8745821 0.6395304 0.7378886
000020 e9 4f ae c0 c7 a6 4c c0 e8 28 33 3f 8d 96 37 3f
       -5.4472547 -3.1976793 0.69984293 0.717141
000030 ed 0b 47 3f 73 6a ec bf ff 29 91 c0 7f 22 65 3f
       0.7775257 -1.8469986 -4.5363765 0.8950576
000040 d1 c7 00 3f c0 46 37 3f cd 2b 23 3f 1b 62 f8 3e
       0.50304896 0.7159233 0.6373871 0.4851235
000050 59 0f f1 bf 6b dc 39 3f 47 03 44 3f 8a 38 49 3f
       -1.8832809 0.72601956 0.765675 0.78601897
000060 61 e3 68 bf 45 a0 85 c0 ba 6d 21 3f c5 78 91 c0
       -0.9097195 -4.175814 0.63058054 -4.5459924
000070 3b 4a d5 c0 12 95 38 3f 48 ed 23 3f b6 3d 68 3f
       -6.6653113 0.72102463 0.6403394 0.90719163
000080 fc dc f0 c0 f6 2a 3a 3f 8a d5 e9 bf 76 e7 1a c0
       -7.5269756 0.72721803 -1.8268292 -2.4203773
000090 69 09 2e 3f 86 4e 3e 3f 7f 6f 3b 3f 01 e5 87 c0
       0.6798311 0.7433857 0.73217005 -4.2467046
0000a0 12 cb 29 3f e7 2f 44 3f 9a 84 43 3f fc b4 aa c0
       0.66325486 0.76635593 0.7637421 -5.334593
0000b0 b5 69 31 3f 0f 9c 28 3f 2c 4c 3f 3f 88 e2 38 3f
       0.6930192 0.65863127 0.74725604 0.7222066
0000c0 11 40 33 3f 7c ad 34 3f b3 83 53 3f 6d dd 61 3f
       0.7001963 0.70577216 0.8262283 0.88228494
0000d0 c1 e4 26 3f 6b 28 2d 3f 14 b5 0a 3f 0c 15 3e 3f
       0.651928 0.676398 0.54182553 0.74250865
0000e0 a1 4d 53 3f b6 ca 36 c0 a0 82 92 bf 0e e8 af c0
       0.8254033 -2.8561225 -1.1446114 -5.497077
0000f0 2f a4 fb c0 c8 4f 1a 3f 66 d7 48 3f 6a 6f 3c 3f
       -7.863792 0.60277987 0.7845367 0.73607504

EncodeProcessDecode/MLPGraphNetwork/graph_network/global_block/layer_norm/batchnorm/mul/ReadVariableOp f4 [64]
000000 d2 64 01 40 6e c1 10 40 8a 44 de 3f ff f5 d0 3f
       2.0217786 2.261806 1.7364666 1.6325072
000010 86 22 d0 3f fe 3e 0e 40 30 ae d8 3f f2 8d ec 3f
       1.6260536 2.2225947 1.6928158 1.8480818
000020 43 09 2a 41 01 d0 2c 41 df 7a d3 3f 8a ad e4 3f
       10.627261 10.800782 1.6521872 1.786546
000030 33 f6 f6 3f a5 6c 0a 41 1d a2 19 40 b5 c0 0f 40
       1.9293884 8.651525 2.4005196 2.246137
000040 16 90 a3 3f e1 42 e1 3f 43 25 d7 3f fe ea b4 3f
       1.2778347 1.7598535 1.6808246 1.4134214
000050 0b a7 c3 40 c1 45 cb 3f 74 77 f9 3f 66 b9 04 40
       6.114141 1.5880662 1.9489579 2.0738158
000060 af 64 bd 40 05 1f 9d 40 8a 2a d4 3f d9 12 c6 40
       5.9185405 4.9100366 1.6575482 6.1898007
000070 54 88 6f 40 e7 f1 f3 3f f4 3e df 3f b7 10 0d 40
       3.7426958 1.9058198 1.7441087 2.2041452
000080 94 77 ca 3f d7 81 fd 3f 9b b0 13 41 20 63 6c 40
       1.5817742 1.9805249 9.230617 3.69355
000090 d1 05 d5 3f 5a 44 ea 3f 7a b7 fd 3f ae 0c 5b 40
       1.66424 1.8302109 1.9821618 3.422649
0000a0 4c b3 f3 3f 42 0d 02 40 de b1 d2 3f f7 8c 0a 41
       1.9039092 2.0320592 1.6460531 8.659415
0000b0 29 66 ed 3f 04 e5 d9 3f b6 a2 f9 3f 5c 40 f3 3f
       1.8546802 1.7023015 1.950278 1.9004016
0000c0 11 f2 e9 3f 4d ed f2 3f 3d c8 fc 3f 6e b5 0c 40
       1.8276998 1.8978668 1.9748608 2.1985736
0000d0 19 ed df 3f 28 60 ea 3f a5 19 be 3f 46 56 f7 3f
       1.7494231 1.8310595 1.4851576 1.9323204
0000e0 4c 1d 02 40 0b bf f7 3f 77 8d 14 41 be 6b 60 40
       2.0330381 1.9355177 9.284537 3.506576
0000f0 53 ad d0 40 f0 f2 cc 3f 29 cc 06 40 44 a0 f6 3f
       6.5211577 1.6011639 2.106211 1.9267659

EncodeProcessDecode/MLPGraphNetwork/graph_network/edge_block/mlp/linear_4/Add/ReadVariableOp f4 [64]
000000 47 0d 98 be b5 5c d5 3e 74 ad ea be c1 d8 7d bf
       -0.2969763 0.41672292 -0.4583546 -0.99158865
000010 8e 19 5e bf de e8 b0 bf 81 e6 bb bf 45 b5 9a 3e
       -0.86757743 -1.3821065 -1.4679719 0.30216423
000020 22 30 2c 3f 5d f8 a3 bf e5 96 ab bb cc 70 0f 3f
       0.67260945 -1.281017 -0.005236494 0.5603149
000030 01 ad dd bd 9c 10 83 bf 8a d7 48 3f 08 2b 65 3f
       -0.108240135 -1.0239444 0.78453887 0.89518785
000040 1c 2e af bf 92 b1 0f bf 74 79 db be c7 24 a2 3e
       -1.3685946 -0.56130326 -0.428661 0.31668684
000050 0b 75 e6 bf 03 5c 0a 40 d1 33 13 c0 e0 94 19 3f
       -1.8004469 2.161866 -2.3000376 0.5999279
000060 ac 82 1f be ed 51 7c be 42 11 6f bf 15 d0 25 3f
       -0.15577191 -0.24640627 -0.9338571 0.64770633
000070 85 50 4e bf a1 f6 e1 3d cf 72 5f be ec 85 3a 3f
       -0.80591613 0.11033369 -0.2182114 0.728606
000080 e7 56 02 bf a7 0f 9f bf 54 ce ca bf fd 00 f0 bf
       -0.5091385 -1.2426652 -1.5844216 -1.8750302
000090 e2 6c 9f bf 9a 9f 30 be 52 a2 ae 3e 66 fd de be
       -1.2455103 -0.17248383 0.34108216 -0.43552703
0000a0 10 52 99 bf fb e9 8a 3e fa fe 45 bf 27 b8 91 bd
       -1.1978168 0.27131638 -0.7734219 -0.071152024
0000b0 5e 40 38 3f a5 33 d6 bf b9 3c 8f bf 8f e7 f6 bf
       0.71973217 -1.6734511 -1.1190406 -1.9289416
0000c0 92 90 e8 bf 1b 12 f4 bf 34 6b f8 3d f8 fc 7b bf
       -1.8169119 -1.9068025 0.121298224 -0.98432875
0000d0 54 2e b2 bf 51 cb 2e c0 e5 97 78 3f 6a 07 b0 3d
       -1.3920388 -2.7311594 0.9710677 0.08595164
0000e0 e9 f0 a6 bf 92 bf 5b bf 08 84 48 3e e8 a3 99 40
       -1.304227 -0.8583919 0.19581616 4.801258
0000f0 b6 11 46 bd 8e 51 3a 3e e7 6e 05 3f b3 79 59 bf
       -0.048356734 0.18195173 0.5212235 -0.84951323

EncodeProcessDecode/MLPGraphNetwork/graph_network/edge_block/mlp/linear_3/Add/ReadVariableOp f4 [64]
000000 c9 34 b0 be b4 b0 b3 bf f9 56 3a c0 fc a8 23 3f
       -0.34415272 -1.40383 -2.9115584 0.63929725
000010 64 10 1e be 2d 5a 3f c0 39 dd 4e 40 33 8a 51 bf
       -0.1543594 -2.989879 3.2322524 -0.818515
000020 ba 27 81 bf 11 9e eb 3e ec 25 ee bc 3e e7 be 40
       -1.0090249 0.46019033 -0.029070817 5.965728
000030 3c 49 16 3f d1 5c f6 bf 73 20 5b 3f 61 68 de bf
       0.58705497 -1.9247075 0.8559639 -1.7375604
000040 6d b4 59 c0 dc 62 20 40 f4 81 a4 40 fa 6d d9 bd
       -3.4016373 2.506034 5.1408634 -0.106166795
000050 91 a3 1d bf e6 1f 5f c0 de 58 7e be 02 d7 a7 bf
       -0.6157771 -3.486322 -0.24838588 -1.311249
000060 bd 57 50 c0 9a 27 76 c0 85 80 69 3d fd ab f4 bf
       -3.2553551 -3.846167 0.05700733 -1.9114987
000070 f0 d6 8c 3d 58 9a 08 c0 ec f2 87 bc 3e bd 33 c0
       0.068769336 -2.1344204 -0.016595326 -2.8084254
000080 ee 1c 00 c0 6d df 8a 40 78 f3 b2 be a6 0d 9f be
       -2.0017657 4.3397737 -0.34951377 -0.310651
000090 de bd 05 40 41 29 c2 bd e0 7b 21 40 7a 9b 38 be
       2.0897136 -0.09480525 2.5231857 -0.1802806
0000a0 9f c2 59 bf c5 11 e1 bd 0d 5a 3a be 37 18 96 c0
       -0.85062593 -0.109897174 -0.18198414 -4.690456
0000b0 1a 4a a4 bd 30 35 df bd f8 30 ba 3f 2c df 28 40
       -0.08021946 -0.108988166 1.4546194 2.6386213
0000c0 f5 a3 0d 40 5b 30 c6 be 8f bd 3b c0 ce 35 9a 3f
       2.2131321 -0.38708767 -2.9334447 1.204767
0000d0 1f 79 98 40 ea 04 8e 40 62 30 65 c0 a2 6f cc be
       4.7647853 4.4381 -3.581078 -0.3992892
0000e0 d9 ae 10 be 7b 5c 6f 40 f5 43 c9 bf 20 91 6b 40
       -0.14129199 3.7400196 -1.5723864 3.6807327
0000f0 6b 30 8c c0 73 b2 62 bd 52 38 f8 be ec 04 e4 3f
       -4.3809104 -0.055345964 -0.4848047 1.7814002

EncodeProcessDecode/MLPGraphNetwork/graph_network/edge_block/mlp/linear_2/Add/ReadVariableOp f4 [64]
000000 d4 fc f1 bd e7 5b 52 40 b9 41 82 bf 58 be cc 3f
       -0.11815801 3.2868593 -1.0176307 1.5995588
000010 af 75 3a 40 1d 0d 52 c0 9a c6 b3 40 e3 7d 26 40
       2.9134328 -3.2820504 5.6179934 2.6014335
000020 a6 48 6e c0 cb ec d2 40 15 43 5e bf 27 92 55 c0
       -3.723184 6.5914054 -0.8682111 -3.3370454
000030 63 a8 43 c0 ff 52 44 40 3d e8 73 40 7b 31 f2 c0
       -3.0571525 3.0675657 3.8110497 -7.56854
000040 bf 03 84 40 36 48 4a 3f 25 83 86 c0 82 84 86 40
       4.1254573 0.79016435 -4.203509 4.2036753
000050 43 5d eb 40 85 5c b1 c0 07 ce b3 bf e3 90 e1 3f
       7.3551345 -5.542544 -1.404725 1.7622341
000060 01 5c 02 40 6d ab 9b c0 d9 21 8f c0 9d 68 80 c0
       2.0368655 -4.864676 -4.472882 -4.01277
000070 33 33 f5 c0 81 52 7f c0 ef eb 18 c0 30 ee f0 be
       -7.6625 -3.9894106 -2.3894002 -0.47056723
000080 0e 20 b1 40 d4 6b 97 40 ec 0f 22 3f b0 c9 03 40
       5.535163 4.7319126 0.63305545 2.059185
000090 f8 1c a5 bf 74 14 4a 40 c5 aa 9c c0 34 55 e8 c0
       -1.2899466 3.1574984 -4.895846 -7.260401
0000a0 eb 97 16 c0 d9 ed b2 c0 2a f1 f3 bd 9d 4b 9b c0
       -2.3530223 -5.591534 -0.11911233 -4.85298
0000b0 d3 91 4d c0 b6 23 9b 40 54 d0 ce bc 15 2c 48 40
       -3.2120254 4.8481092 -0.025245823 3.1276906
0000c0 3f 7f ea bf 85 92 0f c0 5e 2e 6a 3c 15 89 11 40
       -1.8320082 -2.2433178 0.014293281 2.2739918
0000d0 e6 c6 bb c0 5d 96 14 40 38 1c 79 c0 35 6f da 3f
       -5.8680296 2.3216774 -3.8923473 1.7065188
0000e0 de d6 a4 3f 17 21 83 3f 90 3e 5a 40 0f f4 f3 40
       1.2878072 1.0244473 3.4100685 7.6235423
0000f0 a5 a9 00 41 18 0a b9 c0 64 76 0d c0 72 be 50 3f
       8.041417 -5.782482 -2.210351 0.81540596

EncodeProcessDecode/MLPGraphNetwork/graph_network/edge_block/mlp/linear_1/Add/ReadVariableOp f4 [64]
000000 d1 ed 1a 3f 9a 4c 02 c0 cb 05 eb be c5 cb af c0
       0.6051913 -2.0359254 -0.45902857 -5.493624
000010 4f 69 67 c0 a3 6f f4 3f 61 61 01 41 e2 ab 62 c0
       -3.6158025 1.9096569 8.086274 -3.541741
000020 bc 78 df c0 26 f9 5f 40 ed 00 f8 3e 6d 9d 43 40
       -6.983488 3.4995818 0.48438206 3.0564835
000030 fd b1 49 40 30 01 7a 3e 42 07 84 bf a3 41 0b 41
       3.1514885 0.24414515 -1.0314715 8.703525
000040 ce ed b2 40 6a b6 23 c0 77 18 b0 c0 97 be 06 41
       5.591529 -2.5580087 -5.5029864 8.421531
000050 f9 c9 07 c1 22 a6 3a 40 51 8a 89 40 89 50 99 be
       -8.48681 2.91639 4.2981343 -0.29944256
000060 a1 16 3d 3f 2d e2 b0 c0 8c ee 1a 41 21 22 1a 40
       0.73862654 -5.5276093 9.683239 2.408333
000070 47 9e 60 40 ad b1 1c 40 50 82 6b 40 5c 01 7c c0
       3.5096605 2.4483445 3.6798286 -3.937583
000080 bd b8 87 bf b5 ea b2 3f a6 8f c5 3c 06 b9 83 3f
       -1.0603253 1.3977877 0.024116348 1.029084
000090 cd 83 1e c0 3d 09 98 c0 a0 73 9f bf f8 68 30 40
       -2.4767945 -4.7511277 -1.2457161 2.7564068
0000a0 11 d7 96 c0 25 d3 06 c0 af 96 fb be fa 86 e5 40
       -4.713753 -2.1066372 -0.491384 7.1727266
0000b0 d9 24 99 be 27 35 13 be 81 5b 20 3f 08 f5 c9 3f
       -0.29910925 -0.14375745 0.62639624 1.5777903
0000c0 67 59 76 40 ef 31 e8 3f 11 86 99 3f bf 7b 05 3e
       3.8492067 1.8140239 1.1994039 0.13035487
0000d0 3e 87 8b be e1 75 9f c0 39 43 57 bf 37 53 e6 bf
       -0.2725162 -4.9831395 -0.8408695 -1.7994145
0000e0 04 0b 3b c0 e9 1e f8 3f 06 91 d2 bf 3c f0 ba c0
       -2.9225473 1.9384433 -1.6450508 -5.8418255
0000f0 b4 ff 3e c0 3d f9 b9 c0 1e 9c 94 40 cb 5b d3 c0
       -2.9843569 -5.8116746 4.6440573 -6.604955

EncodeProcessDecode/MLPGraphNetwork/graph_network/edge_block/mlp/linear_0/Add/ReadVariableOp f4 [64]
000000 50 eb f3 3f 49 2a 40 3f 61 f8 a3 bf 92 92 fb bf
       1.9056187 0.7506452 -1.2810174 -1.9654105
000010 8a 0b 8f ba f1 78 11 c0 e9 a3 ca be 2c 2d 08 c0
       -0.0010913473 -2.2730067 -0.3957818 -2.127757
000020 53 b9 90 bf 22 e9 f8 be 41 45 01 3e 60 68 21 be
       -1.1306556 -0.48615366 0.12624075 -0.15762472
000030 3d c3 f9 be c9 ac e8 3f 20 52 7c 3e 69 9c 76 be
       -0.48781767 1.817773 0.24640703 -0.24083103
000040 aa 2e 2d c0 58 ce 37 c0 11 8b 59 3f 6b 76 5c c0
       -2.7059731 -2.8719692 0.84977823 -3.4447277
000050 ac d0 cb be f1 2a f0 3f 48 6d bb 3f 38 25 69 bf
       -0.39807642 1.8763105 1.4642725 -0.91072416
000060 6b 28 80 3c 26 0a 4d bf ff 23 65 be 65 2b 8d 3f
       0.015644273 -0.8009361 -0.22377013 1.1028868
000070 23 fe de bf 01 92 1d bf 9d 1e b3 3f 2f d3 92 3c
       -1.7421306 -0.6155091 1.3993717 0.017922966
000080 ac 0d 42 3f bd c9 f6 be 95 b3 83 bf 06 61 0c 3f
       0.7580211 -0.4820079 -1.0289179 0.54835546
000090 2f 43 87 be 66 15 b3 bf c9 17 06 c0 c9 17 97 3f
       -0.26418445 -1.3990905 -2.0952017 1.1804134
0000a0 19 1e c4 bf cd 4e 9d be e7 8d 9a be 6a a2 c8 be
       -1.5321685 -0.30724183 -0.30186388 -0.39186412
0000b0 e0 28 40 bf a2 c3 f5 3d 48 90 fc be f6 c7 94 3f
       -0.7506237 0.120002046 -0.49328828 1.1623523
0000c0 f1 f6 9b bf 04 7d 9d bf 7b c8 a1 3e 23 94 ba 3e
       -1.2184736 -1.2303777 0.31598267 0.36441144
0000d0 71 8f 9c 3d b7 b3 1c c0 04 9c a6 3f 38 cf 17 40
       0.07644547 -2.448469 1.3016362 2.3720226
0000e0 87 81 18 40 5c 04 16 3f c8 f9 bd bf f3 70 1c bf
       2.3829057 0.586004 -1.4841852 -0.61109847
0000f0 f8 c5 a8 3f ef f1 91 bf 59 41 06 3f b6 7d 85 bf
       1.3185415 -1.1401957 0.5244346 -1.0428989

EncodeProcessDecode/MLPGraphNetwork/graph_network/edge_block/layer_norm/batchnorm/ReadVariableOp f4 [64]
000000 1b 40 9e 3f 9b 4c af 3e 7f af a6 3f c3 57 8a 3e
       1.2363313 0.34238133 1.3022307 0.27020082
000010 a2 de ab bd 02 12 2e bf 47 75 f4 3f 32 ea fb be
       -0.08392073 -0.6799623 1.909829 -0.49202114
000020 7c 2d 10 c0 cb f6 43 3f f2 2c 2a c0 f9 64 8d bf
       -2.2527761 0.7654845 -2.6589932 -1.104644
000030 6b e6 0a bf 84 30 a8 bf c8 76 d8 bf 04 74 08 3f
       -0.5425784 -1.3139806 -1.6911249 0.53302026
000040 8a cd 53 40 7c c1 e5 3f c9 d7 02 3f de 7b 72 40
       3.30942 1.7949672 0.5111051 3.7888103
000050 33 45 b6 be dc 53 30 3f f5 18 95 3f ae 55 ad be
       -0.3559967 0.6887796 1.1648241 -0.3385443
000060 f0 b7 9e 3f 19 e8 84 3f fb ec 19 40 e5 8f af bf
       1.2399883 1.038333 2.4050891 -1.3715788
000070 a2 9d 9f 3f 52 f4 06 c0 86 9e 3e c1 53 67 2d c0
       1.2469981 -2.1086621 -11.913702 -2.7094314
000080 81 25 6f 3e ec 36 90 3f 1f d4 d8 3f 1a 1f 6a c1
       0.2335415 1.1266761 1.6939734 -14.632593
000090 75 61 9d 3f 4b 98 a0 3f 9b 84 70 be 91 e8 9c 3f
       1.2295367 1.2546476 -0.23488085 1.2258474
0000a0 3e 7d 18 c0 c7 f2 bb c0 00 be 12 3f 98 27 9f 3f
       -2.3826442 -5.873386 0.57321167 1.2433958
0000b0 3c 96 47 3f 95 c7 f9 3f 22 3a 85 be 7b 4b 70 3f
       0.77963614 1.9514033 -0.26020914 0.93865174
0000c0 19 53 f9 3f 8d b0 86 3f d7 d9 f7 bf 52 36 1e bf
       1.9478484 1.0522629 -1.9363354 -0.61801636
0000d0 bd 1e 4a 3e 50 13 7c 3f 9b 64 c3 bf 44 10 8f bf
       0.19738288 0.9846697 -1.5265077 -1.1176839
0000e0 45 d1 61 c0 e9 38 de be 8b 7e 31 40 10 cb ba 40
       -3.5283978 -0.43402794 2.7733486 5.837288
0000f0 e2 66 9f 3f 64 91 60 3f 9c 87 94 bf a0 06 83 3f
       1.2453272 0.8772185 -1.1603885 1.0236397

EncodeProcessDecode/MLPGraphNetwork/graph_network/edge_block/layer_norm/batchnorm/mul/ReadVariableOp f4 [64]
000000 22 1c 25 40 32 d6 9f 40 cb e3 c0 40 28 91 f8 3f
       2.579842 4.994897 6.0278068 1.9419298
000010 e1 20 b9 40 2b 1a 1c 41 67 db d4 40 d6 8d d2 40
       5.7852635 9.756389 6.6517825 6.579814
000020 ca bc 1d 41 71 e2 2f 40 0c a5 e8 3f ff ac 11 40
       9.858591 2.748196 1.8175368 2.2761838
000030 ba d2 ac 40 31 59 cc 40 d3 fa 40 3f d5 67 ea 40
       5.4007235 6.3858876 0.7538273 7.325175
000040 fd 01 69 40 6d 56 7d 40 be 9a 2a 40 06 09 e5 40
       3.6407464 3.9584 2.6656947 7.1573515
000050 50 ec ce 40 5a 6d 50 40 18 5e bd 40 81 95 a4 40
       6.4663467 3.2566743 5.917736 5.14325
000060 fa 06 25 40 6e c3 db 40 8f 54 f4 40 40 ac 27 3f
       2.5785508 6.867606 7.635322 0.6549721
000070 26 13 b2 40 c6 cf df 3f fd 75 4e 41 91 36 1e 41
       5.5648375 1.7485282 12.903806 9.888322
000080 21 81 25 41 1b 1a 84 40 09 ec ef 40 6a 3b 97 41
       10.344026 4.1281867 7.497563 18.90401
000090 f1 db df 40 e7 89 27 40 00 51 f0 3f d7 27 2b 40
       6.9955983 2.617792 1.8774719 2.6743066
0000a0 70 43 30 41 e7 62 ec 40 2a 8f b2 40 80 cb 26 40
       11.016464 7.387073 5.579976 2.6061707
0000b0 ff 18 d9 40 ca e4 e5 40 9a 8b 00 41 c6 42 d6 40
       6.7843013 7.1841784 8.034082 6.695651
0000c0 f2 cf 02 41 df 6f e6 40 d5 71 07 40 8b 26 d0 40
       8.175768 7.201156 2.1163228 6.504705
0000d0 07 62 94 40 3c 06 84 40 95 80 4e 40 6b d5 95 40
       4.636966 4.125761 3.226598 4.682302
0000e0 0e c6 31 41 58 6a aa 40 9c 46 7a 40 71 80 14 41
       11.110853 5.3254814 3.9105597 9.281358
0000f0 d0 68 27 40 c8 67 fc 40 0d d9 03 41 aa 98 c6 40
       2.6157722 7.8876686 8.240491 6.2061357

EncodeProcessDecode/MLPGraphIndependent/graph_independent/node_model/mlp/linear_4/Add/ReadVariableOp f4 [64]
000000 79 61 1f c1 e6 4c 80 40 1d b5 f1 bf 91 bd 31 bf
       -9.961297 4.009387 -1.8883396 -0.6942988
000010 72 b7 23 c0 60 73 a4 40 3c 9a f1 40 a2 9a dd be
       -2.5580716 5.139084 7.5500774 -0.43282038
000020 39 a9 07 c0 c3 b3 ac 40 c1 6d 41 c0 1f c8 02 c1
       -2.1197035 5.3969436 -3.0223238 -8.173858
000030 9d 58 d1 c0 6e 11 fb c0 7d 36 08 be ca 05 85 40
       -6.542067 -7.8458776 -0.13302036 4.1569567
000040 2c d4 10 41 78 e1 d1 40 28 f4 a2 40 62 12 c3 40
       9.0518 6.558773 5.092304 6.095994
000050 81 2d 68 41 f9 27 96 c1 a4 aa 4b 41 bd ad a6 3f
       14.511109 -18.769518 12.72916 1.3021771
000060 2b fa a0 3f 4f 55 60 c0 9b 33 5c c0 a0 db 8d bf
       1.2576345 -3.5052068 -3.4406497 -1.1082649
000070 f1 be 35 41 ed 1b c1 bd e1 cc ac c0 9a 6f 70 c0
       11.359117 -0.094291545 -5.4000096 -3.7568116
000080 c9 0a a5 3e 5b 15 2e bf a6 53 3b 40 86 54 70 c0
       0.3223479 -0.68001336 2.9269805 -3.755159
000090 5c fb ca 40 3c 78 a0 40 c2 39 2f c1 5a d3 06 40
       6.3431835 5.014677 -10.951601 2.1066499
0000a0 e3 74 2c c0 6a a8 a8 40 85 86 78 40 8f 95 1a be
       -2.6946342 5.2705584 3.8832104 -0.15096115
0000b0 a4 aa ca bf 34 51 31 c0 f4 92 5f bf 81 b9 10 41
       -1.5833325 -2.7705812 -0.8733361 9.045289
0000c0 16 39 2a 40 23 be 0b 40 13 e3 b5 40 32 4f fb c0
       2.6597342 2.18348 5.683969 -7.8534174
0000d0 08 70 5a 3f 05 30 ae 3e d0 e4 a5 c0 46 61 24 3f
       0.85327196 0.3402101 -5.184181 0.6421093
0000e0 31 35 83 c0 36 60 a6 c0 88 1e 0f 3f d7 f5 9e c0
       -4.100243 -5.1992445 0.5590596 -4.9675097
0000f0 3e ff 89 40 a4 f5 4a c0 78 e5 e9 bf 9b a8 d0 3f
       4.3124075 -3.1712427 -1.8273153 1.6301454

EncodeProcessDecode/MLPGraphIndependent/graph_independent/node_model/mlp/linear_4/Add_1/ReadVariableOp f4 [64]
000000 51 4a 09 be 68 79 2f bd 94 b2 e5 bd d2 cc 0e bf
       -0.13407256 -0.04284039 -0.11215702 -0.5578128
000010 4e aa f3 bd 3a 6a 0c be b2 d1 94 bd 2b 64 ca bd
       -0.118977174 -0.13712397 -0.07266559 -0.09882387
000020 b7 42 67 be bd f0 30 be 1b 61 c1 be cf c7 08 be
       -0.22584043 -0.17279334 -0.37769398 -0.13357471
000030 7b e7 8f bd a2 6d 3b be 8a aa 80 bf a2 03 74 39
       -0.07026573 -0.1830354 -1.0052044 0.00023271007
000040 f7 57 9b bd fa 68 02 be 0f 7c dd 3f 73 67 31 be
       -0.07585137 -0.12735358 1.7303485 -0.17324619
000050 c8 eb 1c be c2 85 ad 3c d8 76 b8 bf 41 fa 35 be
       -0.15324318 0.021181945 -1.4411268 -0.17771246
000060 7b 9b 21 40 61 53 2b bf c9 ac 03 be 89 a6 f7 3d
       2.5251148 -0.669241 -0.12858881 0.12092311
000070 0c f5 88 bd ef 34 26 bf 95 11 8c bf e4 5b dd be
       -0.06687364 -0.6492452 -1.0942866 -0.4323417
000080 f3 2f e5 bd e6 56 33 bf cf a6 f1 bd 78 30 02 40
       -0.11190786 -0.7005447 -0.11799394 2.0342083
000090 33 bf 67 be dc c0 f1 be 86 a7 0a be 64 a6 24 be
       -0.2263153 -0.47217453 -0.13540468 -0.16079098
0000a0 46 f5 b0 3f eb 22 33 40 fe 76 d9 be db df fd be
       1.3824852 2.7990062 -0.42473596 -0.4958485
0000b0 fd 6c 69 be a6 27 c8 be b7 c0 16 be 75 9e c4 be
       -0.22795482 -0.3909275 -0.14721952 -0.38402143
0000c0 8a 1b 26 3f 75 bd 6d bf 7a dc 81 3f 14 47 b1 bd
       0.6488577 -0.92867213 1.0145409 -0.08656135
0000d0 a0 19 84 bd 5c b9 f0 be 4a b2 b7 be e3 a9 00 be
       -0.064502 -0.47016418 -0.3587821 -0.12564807
0000e0 6c 13 1d be c3 72 fc be 31 b3 63 be ae 34 4c bd
       -0.1533944 -0.49306306 -0.22236325 -0.049854927
0000f0 b3 e4 aa be 5e cd 7d 3f 23 f7 09 bf e7 b4 5c be
       -0.3337761 0.9914149 -0.53892726 -0.21553384

EncodeProcessDecode/MLPGraphIndependent/graph_independent/node_model/mlp/linear_3/Add/ReadVariableOp f4 [64]
000000 ea ff db c0 4a d7 fc c0 33 0b 06 bf b4 f2 d2 c0
       -6.8749895 -7.9012804 -0.5236084 -6.592127
000010 1d 85 1c c0 62 7d 22 c0 18 8c a1 c0 2a e1 ae c0
       -2.4456246 -2.5389028 -5.0483513 -5.464986
000020 2b 05 d3 c0 d9 b9 a1 40 fb 2f 4a c1 d8 37 30 c1
       -6.594381 5.0539365 -12.636714 -11.013634
000030 6b ba 71 3e b1 e1 45 41 c4 d4 da c0 ba 19 a4 be
       0.23606269 12.3676 -6.8384724 -0.32050878
000040 55 7e cd c0 0c 59 3e 40 6e 8d 88 3f 34 aa 48 40
       -6.4216714 2.974185 1.0668161 3.1353884
000050 cf 00 cf c0 76 89 dd 3f eb 71 8e 40 75 6a f2 40
       -6.4688487 1.7307575 4.451406 7.5754952
000060 19 f1 fd 3e 89 05 54 c1 10 a0 be 40 aa bb 21 41
       0.49598005 -13.251351 5.957039 10.108316
000070 75 47 1f c1 2f c5 61 c0 15 1e a4 c0 cd cc 21 c0
       -9.954946 -3.5276601 -5.128672 -2.528125
000080 ce 5f bc c0 84 a2 25 c0 06 85 7b 40 14 42 dd c0
       -5.886695 -2.5880442 3.929994 -6.914316
000090 3f f2 0e 40 36 a6 a2 c0 c4 1b 87 40 3d 3e 5c be
       2.2335355 -5.0827894 4.2221394 -0.21508117
0000a0 f8 cb 09 c0 bb e3 64 c1 37 a5 bf c0 b5 f3 94 40
       -2.1530743 -14.305598 -5.988918 4.6547494
0000b0 aa 1d 1a c1 3e 1e d3 bf 8d c4 bf 40 b4 83 56 c1
       -9.632242 -1.6493604 5.992743 -13.407154
0000c0 fc dd 15 c1 4c b5 8a 40 67 71 e8 3f 8c 97 5d c0
       -9.366695 4.334631 1.8159608 -3.4623747
0000d0 b2 65 20 c0 56 2a 54 40 e1 be cd c0 61 49 4d 41
       -2.506207 3.315084 -6.4295506 12.830415
0000e0 96 12 cf 3f 15 11 3a c1 87 fd a1 c0 43 51 02 c1
       1.6177547 -11.62917 -5.062198 -8.144839
0000f0 88 c7 c7 c0 a7 c1 80 c1 39 4c 86 3f 9d 33 00 c1
       -6.243107 -16.094557 1.0492011 -8.012601

EncodeProcessDecode/MLPGraphIndependent/graph_independent/node_model/mlp/linear_3/Add_1/ReadVariableOp f4 [64]
000000 99 ef c5 be 33 b7 96 3f 05 00 81 3f d7 f3 92 3e
       -0.3865936 1.1774658 1.0078131 0.2870166
000010 4d 49 6c c0 b0 12 09 bf dc 82 29 3f 9d 27 6e 3e
       -3.691974 -0.5354414 0.662153 0.23257299
000020 99 e5 3d bf ed e8 99 3e f7 29 9b bd 24 3d e1 bd
       -0.74178463 0.3006052 -0.075763635 -0.1099799
000030 5a 0c bb bf 05 39 f3 3e 32 1f 1d bf 4b 48 f9 bd
       -1.4613144 0.4750444 -0.61375725 -0.12171992
000040 ba 43 93 bd de 09 6d 3f 21 c8 a0 3e 90 3c 4b 3e
       -0.07190652 0.9259318 0.31402686 0.19847322
000050 5f 67 71 be af a8 de be 0b 77 a9 bf fa a1 99 3e
       -0.23574589 -0.4348807 -1.3239454 0.3000639
000060 89 59 72 3f fd bf 46 be c6 f8 e8 be 8b 5f 1e be
       0.9466787 -0.19409175 -0.455023 -0.15466134
000070 b2 bd 30 be 12 c3 9d bf a0 30 ea 3f 9b 33 ee bf
       -0.17259863 -1.2325156 1.8296089 -1.8609499
000080 46 7d fa bf 0c 7f 82 bf aa 22 64 bd 0f a4 99 3f
       -1.956948 -1.0195022 -0.05569712 1.2003192
000090 2d 8f 85 3f 44 4b ff bf a9 23 46 40 66 be 17 be
       1.0434319 -1.9944844 3.0959265 -0.14818725
0000a0 3a 99 80 bf a8 0c 32 40 5e 2a 85 bf c2 49 3b bf
       -1.0046761 2.7820225 -1.0403554 -0.7315942
0000b0 c8 3c e0 bf f0 9f 3d bf 50 8c 4f bf ec 7c 5e 3f
       -1.7518549 -0.7407217 -0.81073475 0.86909366
0000c0 3b a4 0f 3f 66 0d e4 bd 11 9b 79 3f b9 54 e2 3f
       0.5610997 -0.11135368 0.9750224 1.7682105
0000d0 11 fa 0e be 56 bd 15 3d 7d 01 97 bf f9 f3 18 bf
       -0.1396258 0.036557518 -1.1797329 -0.5974727
0000e0 0f 8d 91 bd 8c c5 8c 3e 42 35 40 bf a8 bf 8a 3e
       -0.07106983 0.27494466 -0.75081265 0.27099347
0000f0 27 5d 8a bd cd 75 d5 bf 10 0e d1 bd b7 90 6d bf
       -0.06756049 -1.6676575 -0.1020776 -0.9279894

EncodeProcessDecode/MLPGraphIndependent/graph_independent/node_model/mlp/linear_2/Add/ReadVariableOp f4 [64]
000000 fb b7 86 40 b0 6c 92 c0 03 f5 ef c0 32 35 f1 c0
       4.2099586 -4.5757675 -7.4986587 -7.5377436
000010 db 6c 76 c0 6d 35 63 bf 2e d3 c9 c0 96 ad ff c0
       -3.850394 -0.88753396 -6.307029 -7.9899397
000020 4b ee 08 40 33 ec f2 c0 61 b9 a9 c0 85 df 75 c0
       2.1395442 -7.591333 -5.3038793 -3.8417675
000030 b9 c6 8b 3f 56 fe e4 c0 46 0b 14 40 54 8f 0d 41
       1.092002 -7.156047 2.313188 8.847492
000040 a0 72 92 c0 00 6d c4 c0 cf ff 24 bf 2f 3a 38 3f
       -4.5764923 -6.1383057 -0.6445283 0.7196378
000050 41 b9 50 40 89 40 57 bf 8c 31 31 41 dd 2c 95 bf
       3.261307 -0.8408285 11.074596 -1.1654316
000060 ea 9e 0f bf 31 1b 52 c0 2c 9a 1b c1 15 00 ce 40
       -0.5610186 -3.2829096 -9.72514 6.43751
000070 62 2c 61 41 f4 2e 8a c0 e0 66 49 c0 14 dd 7f 3f
       14.073336 -4.3182316 -3.146904 0.99946713
000080 9a 77 18 3e 90 67 24 40 38 f1 86 bf 41 ae 3c c0
       0.14889374 2.568821 -1.0542364 -2.9481356
000090 6e 54 d8 40 82 19 3b 3f 8e 62 93 c0 09 86 9e 40
       6.7603064 0.73085797 -4.6057806 4.9538617
0000a0 3a f0 2d c0 54 42 39 c0 03 89 c1 c0 37 63 10 41
       -2.7177873 -2.8946733 -6.047975 9.024222
0000b0 35 d9 bb 40 41 ad 11 bf 74 03 c6 c0 81 78 3b 40
       5.8702645 -0.5690499 -6.1879215 2.92923
0000c0 52 ee f2 40 ba b6 d4 40 2c 33 ab 40 af d0 a4 40
       7.591592 6.6473055 5.3499966 5.150474
0000d0 30 04 43 c0 9f 3b 5c c0 8c f5 2e c0 ec 65 87 c0
       -3.0471306 -3.441139 -2.733737 -4.2311916
0000e0 9d 0b 67 c0 46 23 04 c1 f8 0f ae 40 b7 ea b5 c0
       -3.6100838 -8.258612 5.4394493 -5.6849017
0000f0 40 cd ed bf 9d 38 a8 c0 f9 a2 6d 3f 89 bc e0 40
       -1.8578262 -5.256911 0.928268 7.0230145

EncodeProcessDecode/MLPGraphIndependent/graph_independent/node_model/mlp/linear_2/Add_1/ReadVariableOp f4 [64]
000000 bc ec 31 3f 65 6f 38 40 ba 1c b5 be 8f 5a ab bf
       0.69501853 2.881799 -0.3537348 -1.3387011
000010 3c 78 30 c0 00 01 6d c0 a4 43 70 c0 79 37 d8 bd
       -2.7573385 -3.703186 -3.7541285 -0.105574556
000020 22 5c 4a 3e ad 12 c1 bf 0e 59 8c c0 14 45 9f bf
       0.19761708 -1.5083824 -4.385871 -1.2442956
000030 d6 55 e8 3f 70 01 9b c0 51 e8 b6 bf 10 ea 75 be
       1.8151195 -4.8439255 -1.4289647 -0.24015069
000040 44 2c 77 3f 3a c0 38 c0 56 15 37 c0 f6 a2 7f bc
       0.9655192 -2.8867326 -2.8606772 -0.015602818
000050 db 47 90 c0 92 2f 86 bf 88 68 b4 40 39 d3 19 40
       -4.5087714 -1.0483267 5.63776 2.403517
000060 9a fb d3 bf 01 8e 81 3f bb 7e b9 be 23 11 5a c0
       -1.6561158 1.0121461 -0.362295 -3.407296
000070 4e c3 af c0 3d 88 02 c0 fe 18 e2 bd 0a a5 bb bd
       -5.492591 -2.0395653 -0.11039923 -0.09162338
000080 e2 6c 3c c0 fc 94 2c c0 44 e7 42 bd 5f d4 9c bf
       -2.9441457 -2.6965933 -0.047583833 -1.225231
000090 ba c1 55 be 5f 96 01 c0 3b 61 90 bd 7e e3 a7 3f
       -0.20874682 -2.024803 -0.07049795 1.31163
0000a0 ea b5 9b bf c5 46 21 be 6c 9d 8a 3f 4c b2 d3 40
       -1.2164891 -0.15749653 1.0829291 6.6155148
0000b0 05 a8 9b be da 49 08 c0 e6 9e 83 40 01 95 59 c0
       -0.30401626 -2.1295075 4.113147 -3.3997195
0000c0 37 2d 68 bf ea 1b c7 be 83 46 c1 3f f5 b3 4a bf
       -0.9069399 -0.38888484 1.5099643 -0.7918084
0000d0 38 6a 8a c0 0e 09 02 c0 cd 2f 7a 3f 25 8c b9 bf
       -4.325466 -2.0318027 0.9772919 -1.4495894
0000e0 7b 5e 58 3f e5 15 16 c0 3c 54 41 be 89 bd 00 40
       0.84519166 -2.3450863 -0.18879789 2.0115683
0000f0 1e eb 21 c0 59 8f 1e 40 7c 92 94 bf 65 2f 8d 3f
       -2.5299754 2.4774992 -1.1607203 1.1030089

EncodeProcessDecode/MLPGraphIndependent/graph_independent/node_model/mlp/linear_1/Add/ReadVariableOp f4 [64]
000000 a9 e1 a1 3f 90 31 92 3f cb 69 42 c0 34 c8 c4 c0
       1.2646991 1.1421375 -3.037707 -6.149439
000010 80 b8 87 c0 70 58 a8 be c5 be b7 c0 3d a2 27 c0
       -4.241272 -0.32879972 -5.7420373 -2.6192772
000020 30 5b cc bf 58 89 0e 40 78 25 01 bf de 61 8a bf
       -1.5965328 2.2271328 -0.504478 -1.0811117
000030 e0 05 1e bf 3b c5 50 40 23 f9 de 3f 79 35 0a c0
       -0.61727715 3.262038 1.741978 -2.1595137
000040 58 fa f0 bd 2f 9f aa 3f a3 85 ef 3f 71 83 53 3f
       -0.11766499 1.3329829 1.8712658 0.8262244
000050 ea a2 cc 3f 98 f0 50 c0 c0 38 e9 40 5d 74 ca bf
       1.5987217 -3.2646847 7.2881775 -1.5816761
000060 9d d4 8a 40 59 02 70 c0 32 b7 c1 c0 2f c6 47 c0
       4.338454 -3.7501433 -6.0536127 -3.1214712
000070 e5 ff f8 3f 6b 53 e1 bf fa b0 62 40 fb 4b 86 40
       1.9453093 -1.7603582 3.5420518 4.196775
000080 1d 89 64 c0 8f 8d 11 c0 4c 28 55 40 2d 60 ae c0
       -3.5708687 -2.274265 3.3305845 -5.44924
000090 66 60 80 c0 83 e6 b2 c0 66 b1 96 40 fb b4 16 c0
       -4.0117674 -5.5906386 4.709155 -2.3547962
0000a0 ff 97 cf bf b6 31 41 c0 3f f5 d5 3f 99 ec 8a 40
       -1.621826 -3.018659 1.6715468 4.3413815
0000b0 4d 68 58 40 cf b7 75 3e cf 38 c7 3f 2f 47 16 40
       3.381366 0.23995899 1.5564212 2.3480947
0000c0 d9 7e cf c0 11 14 d3 40 e4 22 66 c0 23 f8 26 c0
       -6.4842343 6.5961995 -3.5958796 -2.608895
0000d0 96 3f 1b bf 29 81 0e 40 c4 8c a1 c0 c2 99 ec bf
       -0.606439 2.2266333 -5.0484333 -1.8484423
0000e0 78 73 9d c0 db 30 8b c0 bc 23 5d 40 83 3f b6 40
       -4.9203453 -4.349714 3.455306 5.695253
0000f0 2f 5d ec c0 ab c3 80 c0 bd 8b db c0 3b e3 05 c0
       -7.386375 -4.0238853 -6.860808 -2.091994

EncodeProcessDecode/MLPGraphIndependent/graph_independent/node_model/mlp/linear_1/Add_1/ReadVariableOp f4 [64]
000000 f5 73 31 bf a7 b3 26 3f d1 f6 b4 3f 3d 93 0e 3f
       -0.6931756 0.6511788 1.4137822 0.5569342
000010 47 b3 e0 bf f2 ac 8d c0 ce 95 c5 be 8a b8 06 3f
       -1.7554711 -4.4273615 -0.38590854 0.52625334
000020 58 64 0c 41 30 e5 9f 3e 12 18 f4 bd a7 04 38 3f
       8.774498 0.31229544 -0.119186535 0.718821
000030 07 6c 55 40 75 3b 10 40 77 a6 59 40 75 6c 98 c0
       3.3347185 2.253629 3.4007852 -4.7632394
000040 ed 88 3b c0 cb 17 55 40 48 23 50 c0 a8 b7 9b 40
       -2.9302323 3.3295772 -3.2521534 4.866169
000050 53 e8 31 c1 7b 65 5a 41 32 84 04 be c8 9d 19 c1
       -11.11922 13.6497755 -0.12941054 -9.601021
000060 09 f1 47 c0 b4 a2 9c c0 97 c3 7f bd 1a 39 2b c1
       -3.1240866 -4.894861 -0.06244239 -10.701441
000070 34 e3 fe 3f 95 00 ba c0 d4 e5 a1 c0 c9 f3 85 bc
       1.9913087 -5.812571 -5.059305 -0.016351597
000080 28 04 c0 c0 fc 0c f4 3f 2e e6 de c0 34 f4 78 40
       -6.0005074 1.9066463 -6.965598 3.889905
000090 42 a1 b1 bd 99 d2 8c c0 07 cf 08 bd 2b 59 2c c0
       -0.086733356 -4.4007077 -0.03340056 -2.6929424
0000a0 12 85 05 40 0b 90 88 bf 8c f0 23 c0 0c a3 b6 c0
       2.086247 -1.0668958 -2.5615568 -5.707403
0000b0 ef 31 c4 bf e9 0c 6c c0 3b d2 b7 40 d5 be 59 40
       -1.5327739 -3.688288 5.744413 3.4022725
0000c0 e3 74 05 bf 58 ec 71 41 f5 d8 f3 3f 68 b2 56 40
       -0.5213148 15.120201 1.9050585 3.354639
0000d0 04 a4 4e c0 c7 0a 5b bf c1 29 11 bf 78 30 a0 c0
       -3.2287607 -0.8556332 -0.56704336 -5.0059166
0000e0 62 36 c1 bf b7 1f ec 3e 3a 31 d3 c0 cf 68 2c 40
       -1.5094721 0.46117947 -6.599759 2.693897
0000f0 55 37 dc bf 27 4e 0d be c7 38 04 c1 60 73 8b bd
       -1.7204386 -0.13799344 -8.263862 -0.068091154
