examples/typescript/linkedin_ai_assistant/.chrome-profile/screen_ai/127.1/gocr/layout/cluster_sort/model_v2.tflite (tflite, 370204 bytes, 47 tensors)

arith.constant2 f4 [2, 64]
0.23829748 -0.4193569 -0.33100203 0.87934697 -0.8219501 -0.37697223 -0.3784306 0.99804306
0.32278612 0.3528716 0.5212018 -1.980661 2.3148599 0.33070016 -0.32391164 -0.45581752
0.30400908 -0.47376916 1.3908668 -0.34188193 -0.31555793 0.42661214 0.473743 0.30347487
-1.1352078 0.37459642 -0.661289 -0.4318137 0.44740754 0.37586203 0.37100127 -0.8160109
-0.4512503 -0.7456145 -0.47514194 1.263487 0.7708757 -0.30997255 -1.0105768 0.5194437
0.33446634 -0.65596503 -0.31760544 -0.7436051 0.8511625 0.47647387 1.0716372 0.31633896
-0.8865335 1.1034884 0.9287734 0.55253893 0.24588458 1.2466203 2.7233012 0.38678646
0.8877224 -1.074002 1.4470395 0.98351955 0.9356023 0.37284443 -0.83404446 1.0974039
-0.23827766 0.41937494 0.33101195 -0.879311 0.8219844 0.37699366 0.37847072 -0.9980228
-0.32275388 -0.3528216 -0.52114135 1.9807055 -2.314661 -0.33067924 0.32394627 0.45585537
-0.3040104 0.47381422 -1.3907849 0.34189633 0.31558478 -0.4265921 -0.47370622 -0.30345216
1.1352279 -0.37452137 0.66131884 0.43184248 -0.44731793 -0.37580445 -0.3709814 0.816031
0.4512874 0.74570364 0.47515792 -1.2634128 -0.7708414 0.31002098 1.0105829 -0.5194338
-0.3344456 0.65598786 0.3176305 0.7436308 -0.85112923 -0.4764491 -1.071618 -0.31630138
0.8865424 -1.1033423 -0.9287473 -0.5525273 -0.2458487 -1.2464217 -2.7229643 -0.38677064
-0.8876605 1.0740472 -1.4470224 -0.9834994 -0.93553555 -0.3728135 0.83408254 -1.0973014
00000000: 4104 743e f3b5 d6be 1979 a9be e21c 613f
00000010: 526b 52bf 8102 c1be a8c1 c1be c07f 7f3f
00000020: 3944 a53e 96ab b43e 7b6d 053f 4d86 fdbf
00000030: aa26 1440 8851 a93e bfd7 a5be ea60 e9be
00000040: 14a7 9b3e df91 f2be ec07 b23f 260b afbe
00000050: cf90 a1be e86c da3e 718e f23e 0f61 9b3e
00000060: 7d4e 91bf 1acb bf3e 3c4a 29bf af16 ddbe
00000070: 9a12 e53e fd70 c03e e1f3 bd3e 17e6 50bf
00000080: 480a e7be 98e0 3ebf ce45 f3be f1b9 a13f
00000090: 1c58 453f b9b4 9ebe 955a 81bf 43fa 043f
000000a0: 2c3f ab3e 53ed 27bf 2e9d a2be e75c 3ebf
000000b0: c9e5 593f 62f4 f33e 682b 893f 2ef7 a13e
000000c0: dcf3 62bf 1c3f 8d3f 18c4 6d3f 3173 0d3f
000000d0: 2bc9 7b3e 4191 9f3f 914a 2e40 e008 c63e
000000e0: c641 633f e678 89bf 9738 b93f f0c7 7b3f
000000f0: a283 6f3f 77e5 be3e f083 55bf bb77 8c3f
00000100: 0fff 73be 50b8 d63e 667a a93e 871a 61bf
00000110: 926d 523f 5005 c13e eac6 c13e 6c7e 7fbf
00000120: ff3f a5be 08a5 b4be 8569 05bf c287 fd3f
00000130: 6823 14c0 ca4e a9be 49dc a53e e065 e93e
00000140: 40a7 9bbe c797 f23e 3d05 b2bf 090d af3e
00000150: 5494 a13e 486a dabe 9f89 f2be 155e 9bbe
00000160: 264f 913f 44c1 bfbe 314c 293f 751a dd3e
00000170: db06 e5be 7169 c0be 46f1 bdbe 68e7 503f
00000180: 240f e73e 6fe6 3e3f e647 f33e 83b7 a1bf
00000190: dd55 45bf 12bb 9e3e c85a 813f 9df9 04bf
000001a0: 743c abbe d2ee 273f 77a0 a23e 975e 3e3f
000001b0: 9be3 59bf 23f1 f3be c72a 89bf 41f2 a1be
000001c0: 71f4 623f 523a 8dbf 62c2 6dbf 6e72 0dbf
000001d0: c3bf 7bbe bf8a 9fbf 0c45 2ec0 cd06 c6be
000001e0: b83d 63bf 617a 893f 0838 b9bf 9ec6 7bbf
000001f0: 427f 6fbf 69e1 bebe 6f86 553f 5f74 8cbf

arith.constant3 f4 [2, 64]
0.4472718 -0.18109462 0.7463422 -0.25830826 0.12298375 0.1372919 -0.50320756 0.3449365
-0.26318076 0.3772293 0.1525954 -0.2763892 0.3669797 -0.65058845 -0.18313187 0.5159728
-0.20667948 -0.45148447 0.54874176 -0.537693 0.564574 -0.3570222 0.54607844 -0.23690982
0.4053467 -0.31739315 0.78239954 0.30841693 -0.15204634 -0.5391368 -0.3326357 0.33587474
0.26696372 0.49190655 -0.5344005 0.124052085 0.15919386 -0.47067133 0.64461845 0.13193993
0.36673933 0.50166994 -0.6515006 -0.3860443 -0.48422465 0.4361561 0.5638814 0.31426254
-0.2131961 -0.21487059 -0.25628102 -0.40960044 0.20012292 -0.33757737 0.2029056 0.33310688
-0.36295646 -0.15502195 0.25118455 0.38786504 -0.2062766 0.23264465 0.5401103 -0.3625751
-0.4472875 0.18108213 -0.7463473 0.25832117 -0.12295856 -0.137296 0.5032193 -0.34494242
0.2631884 -0.37724254 -0.15259443 0.2764024 -0.3669569 0.6505867 0.18312159 -0.5159437
0.20667912 0.45148784 -0.54871464 0.5377044 -0.5645408 0.35701093 -0.5460628 0.23692729
-0.40533277 0.31738335 -0.7823858 -0.30839884 0.15204512 0.5391386 0.33264008 -0.33586004
-0.2669518 -0.49189728 0.5343976 -0.124038525 -0.15917735 0.47066084 -0.6445891 -0.13193704
-0.3667372 -0.5016569 0.6515007 0.38605106 0.4842187 -0.436169 -0.56388885 -0.31425166
0.21320783 0.21485677 0.256323 0.40961757 -0.20012236 0.3375621 -0.20289579 -0.33311036
0.36295795 0.15503295 -0.2511631 -0.38786978 0.20627807 -0.23264228 -0.5401121 0.3625723
00000000: cf00 e53e de70 39be 4810 3f3f fb40 84be
00000010: e8de fb3d 3f96 0c3e 36d2 00bf 849b b03e
00000020: a1bf 86be 3324 c13e f841 1c3e e382 8dbe
00000030: c3e4 bb3e f78c 26bf ec86 3bbe cb16 043f
00000040: c9a3 53be f928 e7be 577a 0c3f 40a6 09bf
00000050: ec87 103f 9dcb b6be cccb 0b3f 7d98 72be
00000060: 9a89 cf3e 5b81 a2be 564b 483f d3e8 9d3e
00000070: 09b2 1bbe df04 0abf 3a4f aabe c6f7 ab3e
00000080: 78af 883e 2ddb fb3e 79ce 08bf 050f fe3d
00000090: b703 233e d5fb f0be b705 253f 431b 073e
000000a0: 42c5 bb3e 716d 003f bec8 26bf 99a7 c5be
000000b0: 4bec f7be da4f df3e 885a 103f 05e7 a03e
000000c0: 1450 5abe 0907 5cbe 4437 83be 26b7 d1be
000000d0: 06ed 4c3e f1d6 acbe 7cc6 4f3e fc8c aa3e
000000e0: 6ed5 b9be 13be 1ebe 439b 803e 3f96 c63e
000000f0: 2c3a 53be 663a 6e3e ab44 0a3f 72a3 b9be
00000100: de02 e5be 986d 393e 9e10 3fbf ac42 843e
00000110: b3d1 fbbd 5397 0cbe fbd2 003f 4b9c b0be
00000120: a1c0 863e ef25 c1be b741 1cbe 9e84 8d3e
00000130: c6e1 bbbe da8c 263f 3a84 3b3e e314 04bf
00000140: b1a3 533e 6a29 e73e 9078 0cbf ffa6 093f
00000150: bf85 10bf 23ca b63e c6ca 0bbf 119d 723e
00000160: c787 cfbe 1280 a23e 704a 48bf 74e6 9dbe
00000170: b7b1 1b3e fd04 0a3f cd4f aa3e d9f5 abbe
00000180: e8ad 88be f6d9 fbbe 48ce 083f e907 febd
00000190: 63ff 22be 75fa f03e cb03 25bf 811a 07be
000001a0: fac4 bbbe 966c 00bf c0c8 263f 7ca8 c53e
000001b0: 83eb f73e 8b51 dfbe 055b 10bf 98e5 a0be
000001c0: 2753 5a3e 6a03 5c3e c53c 833e 65b9 d13e
000001d0: e0ec 4cbe f1d4 ac3e eac3 4fbe 718d aabe
000001e0: a0d5 b93e f5c0 1e3e 7398 80be de96 c6be
000001f0: 8f3a 533e c739 6ebe c944 0abf 14a3 b93e

arith.constant4 f4 [64, 32]
0.03752048 0.23066619 -0.20868208 0.015047247 0.021770364 0.0710503 0.031239029 -0.14003219
0.047015037 0.16029452 -0.22030124 0.018191835 -0.034001198 0.13899924 -0.010545306 -0.029746417
0.04264499 -0.38891077 -0.048490368 -0.01852516 0.052857734 -0.009736818 0.033917226 0.09241356
0.108988956 -0.005481366 0.0065100426 -0.04632083 -0.08737383 -0.05863383 0.07341348 0.0660964
0.12250721 0.04235507 0.051818352 0.14441912 -0.023416093 -0.0467315 0.0025841517 -0.05691867
-0.11506955 0.096029624 -0.14176644 -0.15195726 -0.26674026 0.05419557 -0.1629292 -0.021049133
-0.04038558 -0.011312482 0.042286124 -0.031431835 0.11773116 0.054051347 0.06351004 -0.08659472
0.022595206 -0.037326925 0.08253532 -0.059441388 -0.08724851 0.21526827 -0.058882628 -0.0077438033
0.078952216 0.062804684 0.027023282 -0.041088764 0.4123882 0.20941204 -0.08533774 0.031696282
-0.13459006 0.040574968 0.09892021 -0.09980946 0.092619464 -0.30847636 -0.11749973 0.009274677
0.1453322 0.5101613 -0.06679483 0.02023434 0.12578107 -0.02516059 -0.06084603 -0.022485856
0.09851971 0.15863577 0.000105148785 -0.056100596 -0.027845958 -0.013325172 -0.111078374 -0.17261685
0.072503164 -0.13513957 0.14698474 -0.031633824 -0.014030836 0.046055686 0.059506003 -0.11093906
-0.08587348 0.03433693 -0.09718291 0.02804462 0.13624646 -0.05008886 -0.044659037 -0.03777898
-0.095022954 0.1536814 0.043573566 -0.002078384 -0.006052943 0.052926704 -0.24037623 -0.010007155
0.11830223 -0.17570546 -0.063558154 -0.03155938 -0.015256588 -0.023862446 -0.1022742 0.11806647
-0.0745281 -0.069550395 0.022950128 0.053403456 0.07921149 -0.011191017 0.07389906 0.15295127
-0.17915082 0.014006268 -0.11899021 -0.11936832 0.25633216 0.044220887 0.07380717 -0.027221479
-0.029022487 0.089939855 0.046458893 0.02386946 -0.031179802 0.050405636 0.053342886 -0.071721196
0.041147813 0.09769062 -0.11854083 0.026025286 -0.058981363 0.0100334585 -0.30644563 0.016851397
0.16106388 -0.044064313 0.06790013 -0.10726694 0.13129014 -0.102430694 -0.10686167 0.0116479425
0.10414395 0.051989872 0.09427762 0.15029614 -0.018256152 -0.04698814 -0.086198874 -0.011798091
-0.037208833 -0.14859267 -0.07288303 -0.024031786 0.052798674 -0.031955067 -0.12785591 0.18291835
-0.04649584 0.0050455127 0.03828235 -0.00091128633 -0.006990136 -0.07496507 0.25297236 -0.09171154
0.062481828 -0.02645766 0.049716186 -0.18514316 0.00024370225 0.062374335 -0.037888683 0.09452479
-0.21171953 0.03653011 -0.14757907 -0.06870984 0.21164614 0.15609996 -0.039916344 0.023891386
0.045775626 -0.20441279 0.012463001 -0.04211932 0.05242292 0.032490022 0.10846541 0.046830934
-0.039824277 0.033485733 -0.14220603 0.025368113 0.001325203 0.053246804 -0.0073274756 0.2763254
-0.17333953 -0.16316324 -0.22972915 0.06271672 -0.17024672 0.1604612 0.14832513 0.13062777
-0.33515075 -0.17183386 0.050788004 -0.44290492 -0.11265918 0.14821306 -0.032955647 -0.089770466
0.020122321 0.10253974 0.10979571 0.021337472 -0.07954778 0.06615527 0.039129462 0.016026482
-0.12105023 -0.033908 -0.05075413 0.097654514 0.017088236 -0.025634563 -0.07093286 0.03690675
00000000: 13af 193d c233 6c3e c1b0 55be ba88 763c
00000010: c357 b23c d282 913d fee8 ff3c 9964 0fbe
00000020: d792 403d 3f24 243e a696 61be 0b07 953c
00000030: d744 0bbd d155 0e3e 38c6 2cbc c2ae f3bc
00000040: 83ac 2e3d 501f c7be d69d 46bd 14c2 97bc
00000050: 5a81 583d 2d87 1fbc caec 0a3d 5243 bd3d
00000060: 9a35 df3d 089d b3bb 3252 d53b e9ba 3dbd
00000070: 0df1 b2bd 072a 70bd ce59 963d 8d5d 873d
00000080: 0fe5 fa3d 837c 2d3d 7b3f 543d 9be2 133e
00000090: 1bd3 bfbc 8869 3fbd df5a 293b 8d23 69bd
000000a0: 96a9 ebbd 2eab c43d 392b 11be af9a 1bbe
000000b0: 2e92 88be 2dfc 5d3d ead6 26be 3b6f acbc
000000c0: 5a6b 25bd fd57 39bc 3734 2d3d abbe 00bd
000000d0: 091d f13d f264 5d3d 8d11 823d 9358 b1bd
000000e0: 9519 b93c 1ee4 18bd 4708 a93d d078 73bd
000000f0: 59af b2bd 496f 5c3e e92e 71bd bbbf fdbb
00000100: b3b1 a13d be9f 803d ee5f dd3c b14c 28bd
00000110: 8c24 d33e 1c70 563e 8ec5 aebd f6d3 013d
00000120: fad1 09be f031 263d ae96 ca3d e768 ccbd
00000130: 46af bd3d 9df0 9dbe b3a3 f0bd d1f4 173c
00000140: f7d1 143e ee99 023f bacb 88bd 7dc2 a53c
00000150: c1cc 003e 951d cebc b039 79bd 4234 b8bc
00000160: b4c4 c93d 6a71 223e 5383 dc38 bdc9 65bd
00000170: 351d e4bc d251 5abc 0f7d e3bd 79c2 30be
00000180: 8a7c 943d 0762 0abe 2b83 163e 7892 01bd
00000190: 97e1 65bc e3a4 3c3d 91bc 733d 0534 e3bd
000001a0: 6fde afbd e1a4 0c3d d507 c7bd d5bd e53c
000001b0: 3184 0b3e fa29 4dbd 65ec 36bd 22be 1abd
000001c0: 659b c2bd a85e 1d3e 327a 323d 7f35 08bb
000001d0: c457 c6bb acc9 583d 3025 76be 0df5 23bc
000001e0: 7148 f23d 22ec 33be c72a 82bd 6944 01bd
000001f0: c5f6 79bc 2d7b c3bc 2375 d1bd d5cc f13d
00000200: 30a2 98bd 7070 8ebd e801 bc3c 95bd 5a3d
00000210: a239 a23d 875a 37bc 6458 973d 429f 1c3e
00000220: 5073 37be 8c7a 653c 24b1 f3bd 6177 f4bd
00000230: f83d 833e f620 353d 3728 973d 94ff debc
00000240: 91c0 edbc 6332 b83d ae4b 3e3d e389 c33c
00000250: c96c ffbc 2476 4e3d 127e 5a3d 90e2 92bd
00000260: 9c8a 283d 0512 c83d 89c5 f2bd fb32 d53c
00000270: 7196 71bd 6063 243c 71e6 9cbe f10b 8a3c
00000280: eeed 243e c87c 34bd 390f 8b3d c5ae dbbd
00000290: ec70 063e 2fc7 d1bd 4bda dabd 03d7 3e3c
000002a0: 6c49 d53d 55f3 543d a014 c13d 3be7 193e
000002b0: ed8d 95bc a376 40bd 0989 b0bd c84c 41bc
000002c0: 4a68 18bd ad28 18be b343 95bd 4fde c4bc
000002d0: 6c43 583d 51e3 02bd a9ec 02be f34e 3b3e
000002e0: 6c72 3ebd d454 a53b f4cd 1c3d 64e3 6eba
000002f0: 830d e5bb 4987 99bd 9885 813e 43d3 bbbd
00000300: f2ec 7f3d bcbd d8bc 33a3 4b3d 2b96 3dbe
00000310: 538a 7f39 3b7c 7f3d 2a31 1bbd 3796 c13d
00000320: 01cd 58be 99a0 153d f81e 17be bfb7 8cbd
00000330: c4b9 583e abd8 1f3e 527f 23bd deb7 c33c
00000340: 397f 3b3d 9651 51be 9d31 4c3c 4f85 2cbd
00000350: 6ab9 563d 4214 053d 1d23 de3d cbd1 3f3d
00000360: c81e 23bd 5628 093d 759e 11be cad0 cf3c
00000370: 6fb2 ad3a 5219 5a3d 521b f0bb 867a 8d3e
00000380: eb7f 31be 4414 27be 1e3e 6bbe a071 803d
00000390: 2855 2ebe f14f 243e 8be2 173e 49c3 053e
000003a0: e198 abbe 37f5 2fbe 1507 503d 6fc4 e2be
000003b0: dbb9 e6bd 2ac5 173e 80fc 06bd 94d9 b7bd
000003c0: 91d7 a43c 5b00 d23d 93dc e03d eccb ae3c
000003d0: f2e9 a2bd 6a7c 873d 3746 203d f849 833c
000003e0: 2fe9 f7bd 1de3 0abd 90e3 4fbd 17ff c73d
000003f0: a1fc 8b3c 93ff d1bc 3f45 91bd 882b 173d

arith.constant5 f4 [64, 32]
-0.1022709 0.022089833 -0.0013983324 0.011900672 0.0029802772 -0.014902535 -0.028999973 -0.08699995
0.0021413255 -0.027514305 -0.04482805 -0.096516415 -0.058469187 -0.057292156 -0.012000477 -0.039166022
0.06037053 0.02056061 -0.076550975 -0.14665219 -0.13910787 0.042952225 0.02680633 -0.018448204
0.02248734 -0.026940051 -0.0103891855 -0.026064824 -0.010668741 -0.08143669 0.0023942143 -0.055661235
0.024364606 -0.029911168 -0.0072641806 -0.0767794 0.031794433 0.123076804 -0.09041759 -0.03712023
0.004564294 -0.05644736 -0.028953237 0.004903821 -0.01082311 -0.0025197614 0.038010415 0.018388959
-0.0120366635 0.033387143 -0.071606226 -0.04100877 0.05537268 -0.08476696 -0.11382675 0.037258383
0.04750384 0.009331323 -0.02842405 -0.07772071 0.048429966 -0.013720929 0.018337918 0.036100674
0.080692515 0.038107608 -0.00630968 0.010364063 0.064402536 -0.017688997 -0.0016329471 -0.049734876
-0.0044771936 0.06490459 0.0029345923 0.009873471 -0.036129013 0.04195728 0.0061813723 0.0018741082
-0.052557617 0.07168293 0.04832537 -0.1399972 0.09937488 -0.03292547 0.02574172 -0.039356794
0.10040844 -0.027368633 0.021747079 -0.004642221 0.096762665 -0.013851414 -0.032017976 0.042950485
-0.08760897 -0.12807316 0.0063356296 0.037940994 -0.045867387 0.07442327 0.10235029 0.040773947
-0.007132529 -0.030759756 -0.09880822 -0.0011084717 -0.010549377 0.012522444 0.05785368 0.10261467
0.012224675 -0.06999456 0.07475652 -0.022240125 -0.013907273 -0.059420727 -0.10596503 0.018848393
0.012293215 -0.01951247 0.07628696 -0.019352606 -0.023137938 0.010801838 -0.045663696 -0.025576364
-0.04100663 -0.11058724 -0.026100125 0.004642117 -0.047297735 -0.012214559 0.008898375 0.069327295
-0.0003097608 0.03795434 -0.010559512 -0.031450856 0.07151419 0.04493557 -0.0063089198 0.015028403
0.014567588 -0.05759252 -0.030889638 -0.024515368 0.03281591 0.07027527 -0.046428297 0.074615404
0.11117044 -0.06306931 0.01641968 0.0060768 -0.052764982 0.033126004 -0.01725143 0.06262286
0.007249723 -0.069750816 0.00940187 0.104694866 -0.04213221 -0.14292867 0.035436105 -0.018865382
-0.013229852 -0.052444305 0.064137295 0.036132917 0.050819863 -0.023090128 0.006712074 0.069330044
0.050899602 -0.117912784 0.025164163 -0.08545992 -0.070059545 0.040518153 -0.085457504 0.04006889
0.10317905 0.043396812 0.16080219 0.04892855 -0.093058266 0.00510417 -0.09159515 -0.06806008
-0.09195317 0.06585544 -0.008244537 0.07948832 0.14548449 0.16156697 -0.055119433 -0.008044552
0.0015696855 0.080173455 0.05357759 -0.020165825 -0.0017312218 0.04564699 -0.02547375 -0.0919074
-0.04446469 0.047304433 -0.028698022 -0.07402431 -0.19926631 0.04000206 -0.057459135 -0.07042974
-0.021172762 -0.04399249 -0.017163625 0.0010193456 0.05073935 -0.039171424 -0.0067654354 0.025127657
-0.01933498 0.047173996 -0.0008519168 -0.09918923 -0.10735935 -0.067152075 0.0044287615 0.028376985
-0.008066187 0.0051584803 0.0031792757 0.0029799675 -0.005866036 -0.022574088 0.006874188 0.04232482
0.05214098 -0.0640733 -0.060878534 0.036303136 0.05652818 0.019608725 0.05859129 0.046736967
0.043045122 0.026951158 0.045739945 -0.014488878 -0.0959671 0.0055453735 -0.102327175 -0.021225814
00000000: 6873 d1bd bdf5 b43c 4048 b7ba 09fb 423c
00000010: c150 433b c329 74bc 5a91 edbc 082d b2bd
00000020: 7b55 0c3b ae65 e1bc 9e9d 37bd 66aa c5bd
00000030: 637d 6fbd 2eab 6abd a69d 44bc 8d6c 20bd
00000040: 1747 773d b96e a83c c2c6 9cbd fe2b 16be
00000050: 4b72 0ebe acee 2f3d f398 db3c b020 97bc
00000060: 5f37 b83c 62b1 dcbc 6737 2abc e685 d5bc
00000070: f1cb 2ebc 48c8 a6bd 40e8 1c3b 09fd 63bd
00000080: 4898 c73c 4408 f5bc 5d08 eebb 853e 9dbd
00000090: e13a 023d b10f fc3d dc2c b9bd 620b 18bd
000000a0: 1390 953b 5935 67bd 572f edbc 3bb0 a03b
000000b0: 6a53 31bc 9522 25bb cfb0 1b3d 71a4 963c
000000c0: 6d35 45bc f5c0 083d 49a6 92bd d0f8 27bd
000000d0: 77ce 623d 4d9a adbd 001e e9bd 3f9c 183d
000000e0: 6393 423d 68e2 183c 8ed9 e8bc 092c 9fbd
000000f0: 805e 463d bfcd 60bc 6739 963c 4dde 133d
00000100: 1e42 a53d b916 1c3d 6fc1 cebb 08ce 293c
00000110: 7ae5 833d 84e8 90bc 9d08 d6ba ccb6 4bbd
00000120: 6cb5 92bb b3ec 843d 4a52 403b 57c4 213c
00000130: 04fc 13bd 66db 2b3d 1c8d ca3b a3a4 f53a
00000140: a846 57bd 80ce 923d d3f0 453d 6d5b 0fbe
00000150: 0f85 cb3d dcdc 06bd 4de0 d23c 9734 21bd
00000160: f1a2 cd3d 2f34 e0bc ee26 b23c c61d 98bb
00000170: 812b c63d 0bf1 62bc 4825 03bd d9ec 2f3d
00000180: 556c b3bd 9c25 03be 1d9b cf3b 0468 1b3d
00000190: 71df 3bbd 3a6b 983d 079d d13d 9502 273d
000001a0: fdb7 e9bb e2fb fbbc f75b cabd 234a 91ba
000001b0: 4bd7 2cbc f02a 4d3c fbf7 6c3d a427 d23d
000001c0: 014a 483c 4f59 8fbd f219 993d ec30 b6bc
000001d0: 55db 63bc 2663 73bd 3204 d9bd f267 9a3c
000001e0: 7b69 493c 9ed8 9fbc 563c 9c3d 5b89 9ebc
000001f0: c68b bdbc 31fa 303c db09 3bbd 8685 d1bc
00000200: 91f6 27bd 907b e2bd eecf d5bc e61c 983b
00000210: 45bb 41bd 931f 48bc 7dca 113c 78fb 8d3d
00000220: 6467 a2b9 0376 1b3d ce01 2dbc 9dd2 00bd
00000230: 0876 923d 5c0e 383d 0ebb cebb b139 763c
00000240: e5ac 6e3c 22e6 6bbd 440c fdbc 74d4 c8bc
00000250: fa69 063d 7bec 8f3d 992b 3ebd f6cf 983d
00000260: 54ad e33d 7b2a 81bd 9182 863c e51f c73b
00000270: 1820 58bd 22af 073d df52 8dbc 6a40 803d
00000280: 168f ed3b 84d9 8ebd 4d0a 1a3c 436a d63d
00000290: d392 2cbd e55b 12be 7325 113d 938b 9abc
000002a0: 05c2 58bc d7cf 56bd 6a5a 833d 1c00 143d
000002b0: 7d28 503d 8227 bdbc f5f0 db3b e9fc 8d3d
000002c0: 1a7c 503d 427c f1bd 1325 ce3c 9c05 afbd
000002d0: 617b 8fbd 5df6 253d 5804 afbd 471f 243d
000002e0: 8a4f d33d dbc0 313d 54a9 243e 4e69 483d
000002f0: 5595 bebd e240 a73b 3d96 bbbd 1563 8bbd
00000300: f251 bcbd 38df 863d 1814 07bc c6ca a23d
00000310: e3f9 143e d071 253e eac4 61bd 4ccd 03bc
00000320: e8bd cd3a fb31 a43d 2d74 5b3d cd32 a5bc
00000330: 2aea e2ba 57f8 3a3d 53ae d0bc f239 bcbd
00000340: 9b20 36bd 4bc2 413d 1d18 ebbc 0f9a 97bd
00000350: 780c 4cbe 33d9 233d 455a 6bbd 783d 90bd
00000360: 8072 adbc 7831 34bd bb9a 8cbc 909b 853a
00000370: 11d4 4f3d 3772 20bd 96b0 ddbb 84d8 cd3c
00000380: 6464 9ebc 8539 413d 2b53 5fba b923 cbbd
00000390: 38df dbbd 0787 89bd 251f 913b da76 e83c
000003a0: 0a28 04bc 7808 a93b 655b 503b 8f4b 433b
000003b0: e037 c0bb 4bed b8bc de40 e13b ca5c 2d3d
000003c0: c891 553d dd38 83bd c55b 79bd 99b2 143d
000003d0: 188a 673d 7aa2 a03c 6cfd 6f3d 436f 3f3d
000003e0: 1550 303d adc8 dc3c cf59 3b3d c262 6dbc
000003f0: 668a c4bd f7b5 b53b e990 d1bd c2e1 adbc

arith.constant6 f4 [32, 32]
0.011235069 0.00044071482 0.0042152083 -0.019070145 0.004503066 0.025136245 0.016280027 -0.015633019
0.004690064 -0.017324178 0.007483791 -0.030667571 -0.002424787 0.027015882 -0.018715072 0.019959636
-0.02439824 -0.017043654 -0.006877858 0.022759967 -0.0025693015 -0.067729585 -0.0052084606 -0.006831786
0.0076262103 -0.034053937 -0.03301125 -0.016396636 0.026072701 0.021156706 0.017251035 -0.031834293
-0.03379077 0.008180052 -0.015203426 -0.019495245 0.004866554 0.006238734 0.009955367 -0.02413803
-0.009779571 0.011350029 0.009742548 0.020156777 0.0074356357 -0.0072079455 0.052557413 0.0077147735
-0.025194941 -0.060004808 -0.021266237 -0.03686193 0.013833361 -0.004179063 0.015108476 0.0060145245
0.019942693 0.0044374224 -0.0005419716 -0.013081513 -0.0024220448 0.052353185 -0.0056053097 -0.009201022
-0.030158106 -0.0075372146 0.010678919 0.013227237 -0.01130062 -0.013138777 0.014387719 -0.030102985
-0.0011216451 -0.0076007573 -0.06125516 -0.005067007 0.023156734 0.03167053 0.004294701 0.0021070333
-0.022499414 0.0349951 0.009001547 -0.0038421026 -0.025578784 -0.009743763 -0.007373558 0.0013913184
0.012042275 0.017949585 -0.017579457 0.024625504 0.0033743286 0.050885335 0.060256574 -0.115709916
0.0068958956 -0.020400407 0.0028741772 -0.015276029 0.010818133 -0.030131022 -0.007889288 0.00043686177
-0.004942091 -0.009908431 -0.0049759946 -0.037030842 0.034896795 0.05222506 0.0070856316 -0.005244607
-0.020949326 -0.017749561 0.0052670706 2.4534773e-05 0.018462261 -0.042607795 0.036683228 -0.010225529
-0.031929027 -0.010515803 -0.01766356 -0.022320347 0.016600395 0.0063627097 0.005855664 -0.045594804
0.000108333516 0.014722696 0.007519161 -0.0019667782 0.019850906 0.024356829 -0.01204169 -0.01204965
-0.04243438 -0.015711898 0.011863281 -0.012859683 -0.0086100735 -0.007451668 0.0055678664 -0.019002426
0.0045245104 0.043858558 0.0047740364 -0.039681327 -0.013968067 0.009168682 -0.004920258 -0.011001705
-0.01054597 0.0028784766 0.0060030483 0.0069983406 8.413442e-05 0.014775376 0.012505895 0.02449072
0.0026887003 0.014464835 0.0055862907 -0.0078038047 -0.014308605 0.0026012615 -0.022132087 -0.01508924
-0.010879574 -0.006921888 -0.0315697 0.006071804 0.039980035 0.018937113 0.0014906301 -0.012566369
0.02352631 0.016601188 -0.009264655 0.04059476 -0.022677965 -0.010800974 -0.014551734 0.0023244622
-0.035926398 -0.028791083 0.009491659 -0.016160928 -0.0063764937 -0.004421104 -0.00514581 -0.01577415
0.0014146564 -0.038413607 -0.029595146 -0.011992749 -0.017823365 -0.015591012 -0.011256743 0.009772886
-0.015966745 0.0031732144 0.0083354805 0.010913584 -0.011315622 0.007400271 -0.046241805 0.0032480662
0.009244845 -0.0048749996 0.03946913 -0.014486521 -0.0141664855 -0.06423599 -0.02756382 0.006371197
-0.0035987522 0.03640771 0.013535708 -0.028534163 0.0046070954 0.0018965992 -0.015363353 -0.03441274
0.013137967 -0.019153219 0.022271661 0.029692566 -0.0197678 -0.0038014643 0.0076825535 -0.03972745
-0.013089331 -0.0064609293 0.031533502 -0.04574018 -0.0013068411 0.019273302 -0.0021057865 -0.019270845
-0.016465832 -0.005911216 -0.011427182 0.06529114 0.011622167 0.013331814 -0.04910457 0.011201098
-0.025739748 0.009400885 -0.014250405 -0.03282719 0.0056352103 0.0039485865 0.019662857 -0.03669046
00000000: 4b13 383c be0f e739 bb1f 8a3b fe38 9cbc
00000010: 758e 933b 87ea cd3c b15d 853c d110 80bc
00000020: 1caf 993b 6feb 8dbc 973a f53b 8f3a fbbc
00000030: 2de9 1ebb 6950 dd3c 5a50 99bc 6482 a33c
00000040: d1de c7bc 229f 8bbc a85f e1bb 1c73 ba3c
00000050: ba61 28bb cfb5 8abd bcab aabb 2ddd dfbb
00000060: 4ae5 f93b 247c 0bbd ce36 07bd 3d52 86bc
00000070: 6b96 d53c d450 ad3c 0b52 8d3c ad64 02bd
00000080: 3168 0abd a005 063c ca17 79bc 7eb4 9fbc
00000090: 9d77 9f3b 4b6e cc3b d61b 233c 1ebd c5bc
000000a0: 7e3a 20bc 79f5 393c 359f 1f3c d31f a53c
000000b0: a2a6 f33b a130 ecbb 7146 573d 36cc fc3b
000000c0: 9f65 cebc 9ac7 75bd 8836 aebc 89fc 16bd
000000d0: 52a5 623c 85f0 88bb 8b89 773c 7d15 c53b
000000e0: dc5e a33c cc67 913b 1913 0eba d853 56bc
000000f0: 2bbb 1ebb 4b70 563d bfac b7bb e2bf 16bc
00000100: 220e f7bc bdfa f6bb a2f6 2e3c 0eb7 583c
00000110: 3c26 39bc 0644 57bc 78ba 6b3c 899a f6bc
00000120: 2a04 93ba c60f f9bb b1e6 7abd 2309 a6bb
00000130: 31b3 bd3c f5b8 013d 90ba 8c3b 2716 0a3b
00000140: b150 b8bc 0657 0f3d 397b 133c c9cb 7bbb
00000150: 998a d1bc 4ea4 1fbc e39d f1bb e65c b63a
00000160: f64c 453c 020b 933c cb02 90bc 6dbb c93c
00000170: d723 5d3b 246d 503d 99cf 763d 52f9 ecbd
00000180: f7f6 e13b c11e a7bc b15c 3c3b 4f48 7abc
00000190: 8a3e 313c 55d5 f6bc 1242 01bc 980a e539
000001a0: 44f1 a1bb f956 22bc ab0d a3bb a7ad 17bd
000001b0: f1ef 0e3d f2e9 553d 962e e83b f4da abbb
000001c0: ec9d abbc 8767 91bc 6497 ac3b 06d0 cd37
000001d0: 2b3e 973c 8385 2ebd 2741 163d fa88 27bc
000001e0: 03c8 02bd 794a 2cbc 2cb3 90bc 29d9 b6bc
000001f0: 8dfd 873c 477e d03b dfe0 bf3b 9ec1 3abd
00000200: 1d31 e338 7637 713c 4b63 f63b 10e5 00bb
00000210: 5e9e a23c f987 c73c 824a 45bc e56b 45bc
00000220: accf 2dbd 3db6 80bc 355e 423c 6bb1 52bc
00000230: 4411 0dbc 1f2d f4bb a672 b63b faaa 9bbc
00000240: 5842 943b 08a5 333d 856f 9c3b e388 22bd
00000250: 52da 64bc 3d38 163c 1e3a a1bb 7f40 34bc
00000260: 01c9 2cbc d3a4 3c3b 38b5 c43b 5652 e53b
00000270: 5371 b038 6b14 723c 87e5 4c3c c3a0 c83c
00000280: e834 303b eafd 6c3c 340d b73b 0fb7 ffbb
00000290: a46e 6abc ed79 2a3b 5a4e b5bc dc38 77bc
000002a0: 3e40 32bc 01d1 e2bb 3b4f 01bd fcf5 c63b
000002b0: 1bc2 233d 0122 9b3c 3f61 c33a 2ce3 4dbc
000002c0: 40ba c03c 37ff 873c c8ca 17bc b146 263d
000002d0: 24c7 b9bc 92f6 30bc 656a 6ebc 0156 183b
000002e0: 8f27 13bd 47db ebbc e782 1b3c ec63 84bc
000002f0: e8f1 d0bb e9de 90bb 2f9e a8bb ca38 81bc
00000300: fe6b b93a 9657 1dbd 8571 f2bc 3c7d 44bc
00000310: 4e02 92bc 7271 7fbc 346e 38bc 741e 203c
00000320: b1cc 82bc b4f5 4f3b 8a91 083c e4ce 323c
00000330: 2965 39bc f97d f23b 0c68 3dbd 82dd 543b
00000340: b177 173c 76be 9fbb 62aa 213d df58 6dbc
00000350: 8c1a 68bc 298e 83bd 85cd e1bc 79c5 d03b
00000360: 0bd9 6bbb 4020 153d e0c4 5d3c 7ac0 e9bc
00000370: 1ef7 963b 4f97 f83a 93b6 7bbc 60f4 0cbd
00000380: a140 573c 36e7 9cbc 0f73 b63c d33d f33c
00000390: 15f0 a1bc fd21 79bb eebd fb3b 40b9 22bd
000003a0: a274 56bc 34b6 d3bb 4629 013d 0e5a 3bbd
000003b0: 504a abba 0be3 9d3c 3c01 0abb e4dd 9dbc
000003c0: 5ae3 86bc e0b2 c1bb 1339 3bbc 5cb7 853d
000003d0: e76a 3e3c ae6d 5a3c e021 49bd cf84 373c
000003e0: 2adc d2bc 2b06 1a3c 887a 69bc ce75 06bd
000003f0: 92a7 b83b 2563 813b 0014 a13c bc48 16bd

arith.constant7 f4 [1, 64]
0.2551823 0.5382333 0.25722 0.46766287 0.39410928 -0.7232839 -0.3270993 -0.31481263
-0.29143086 -0.59632134 0.5659755 -0.7070373 -0.46257046 -0.18999189 0.45860255 0.3545853
-0.3707582 -0.7248561 0.30740342 -2.0031695 -0.31618693 0.44473946 -0.50654435 0.34767604
-0.34324384 -0.30303326 -0.26904353 0.36020806 0.3299159 -0.4668962 0.30947086 -0.31948474
0.40097284 -0.32990324 -0.4045533 0.4597575 -0.37759605 -0.26754835 0.33878258 0.49350888
-0.39055398 -0.38457927 0.52293736 0.37160555 -1.5684767 -0.49058744 -0.7468709 0.29169127
0.39537892 0.5317422 -0.57995063 0.39445767 0.39178243 -0.45021084 -0.36079845 -0.44905707
0.55686146 0.39630562 0.26667738 0.39645422 0.32063413 -0.46315002 0.44608268 0.25083646
00000000: 41a7 823e a8c9 093f 57b2 833e 8271 ef3e
00000010: b1c8 c93e 2229 39bf 8f79 a7be 1f2f a1be
00000020: 6d36 95be 84a8 18bf c5e3 103f 6600 35bf
00000030: 09d6 ecbe 3c8d 42be f4cd ea3e 348c b53e
00000040: 05d4 bdbe 2b90 39bf fb63 9d3e ee33 00c0
00000050: 41e3 a1be e4b4 e33e e4ac 01bf 9802 b23e
00000060: a8bd afbe 2d27 9bbe 13c0 89be 316d b83e
00000070: bdea a83e 050d efbe f772 9e3e 8193 a3be
00000080: 504c cd3e 14e9 a8be 9c21 cfbe 5665 eb3e
00000090: 4554 c1be 19fc 88be e974 ad3e 32ad fc3e
000000a0: b1f6 c7be 93e7 c4be 39df 053f 1543 be3e
000000b0: d8c3 c8bf 472e fbbe ee32 3fbf 8f58 953e
000000c0: 1b6f ca3e 4220 083f a577 14bf 5bf6 c93e
000000d0: b597 c83e 0982 e6be 93ba b8be cfea e5be
000000e0: 798e 0e3f 92e8 ca3e f089 883e 0cfc ca3e
000000f0: 282a a43e 0022 edbe f364 e43e a36d 803e

arith.constant8 f4 [64, 32]
0.08968918 -0.09272524 0.06987942 0.090238385 -0.01937111 -0.049916822 0.05225228 0.06469254
0.012236329 0.006794471 -0.03926659 -0.09014904 -0.027885422 -0.041112214 -0.015650429 0.067338385
0.17393118 -0.033817247 -0.0148048755 -0.050366152 0.01383713 0.081905946 0.14881542 -0.06415384
-0.14759488 0.028725019 -0.009073989 0.16099796 -0.05727563 0.06490603 -0.14082557 0.1303962
-0.089743614 0.18018243 -0.052802965 -0.04686916 -0.041490745 -0.08596203 0.02476057 -0.036907125
0.013618657 -0.032283016 0.18776645 0.004662572 0.034688022 0.06073323 -0.0035211132 0.036826942
-0.03184668 -0.07136091 0.019215709 -0.027823629 0.024444217 -0.018659247 -0.031323116 0.0452342
0.23081675 0.07454587 0.018268932 0.0644208 -0.025501885 0.037559442 -0.022383006 -0.031434976
0.042461626 0.052548986 -0.033782568 -0.0025101362 -0.11640549 0.0186597 -0.039405294 0.009192287
8.827551e-05 0.023908474 -0.18438123 0.049758878 -0.053416077 -0.00032231773 0.14382179 -0.066283315
0.110024065 -0.09678284 0.03653533 0.029944146 -0.0762876 -0.07584575 0.05207015 0.13391793
-0.02580638 0.035100706 -0.094330095 -0.1007964 -0.03002782 0.11286429 -0.020221312 0.06277403
-0.0683395 0.00912399 0.08656433 0.01966616 -0.086322814 0.011666396 0.05716975 0.009172468
0.014012692 0.03138883 0.066504836 -0.001012942 0.02825893 0.040755294 -0.04568017 -0.013735451
-0.070735715 -0.08459324 0.02129361 -0.023213925 0.044170164 0.048644077 0.06878446 0.1003101
-0.061378386 0.03495502 -0.040748667 0.016229894 0.07709284 -0.03481737 0.036094356 0.02395266
-0.07911655 0.015408966 0.055767436 0.049974304 0.017122217 -0.13265993 -0.018523058 0.08940234
0.06141975 -0.07567584 0.03647864 0.006088592 0.08224046 -0.003455318 -0.009514315 -0.036129635
0.024842305 0.06342332 0.09558191 0.05791933 -0.052564178 0.010428859 0.060303904 -0.019477898
0.05387362 0.00535292 -0.013279569 0.008960792 0.07138962 -0.11089354 0.094310954 0.035673518
0.0130566405 -0.05836012 0.07570096 0.05271021 -0.021700418 0.010679347 0.039750345 -0.028147807
0.06764809 0.08535726 0.08772454 0.06042747 0.009167652 0.010249076 -0.024220502 0.08673962
-0.009491669 -0.05444245 0.005563885 0.0347251 0.10778659 0.0033450208 -4.078776e-05 0.052581027
-0.039592534 0.07037036 0.010380137 -0.026341503 0.0037365735 -0.013732047 -0.008548662 0.072513804
-0.06512461 -0.01364477 0.04458759 0.052734084 -0.11006432 -0.0024062116 -0.05222109 -0.052137263
0.023427919 -0.13869303 0.0022939406 -0.0999466 0.09347979 0.05432326 -0.08422681 -0.03571271
-0.04475135 0.08768131 -0.06312719 0.097656175 0.030782903 -0.070673764 0.013746991 0.050788134
0.040060543 -0.031719726 0.08491631 -0.094103366 -0.005611493 -0.032651458 0.10048934 -0.067443
-0.16355175 0.05016947 -0.1139166 -0.11693698 0.05888436 -0.005005136 -0.045315754 0.087880604
-0.029500315 -0.022909714 -0.02066632 0.0050004604 -0.017328871 -0.017015364 -0.0753377 -0.036697794
-0.0011844718 -0.018069092 -0.018656513 0.08682543 -0.05157212 0.01066536 -0.0024198205 0.054499917
0.0066331984 0.061245084 -0.034542974 -0.004026654 -0.07443571 0.02210605 0.037464596 -0.020053806
00000000: f6ae b73d bbe6 bdbd f11c 8f3d e7ce b83d
00000010: 29b0 9ebc 9575 4cbd 7d06 563d 867d 843d
00000020: e27a 483c 27a4 de3b 01d6 20bd 0fa0 b8bd
00000030: f86f e4bc 4865 28bd 5435 80bc b5e8 893d
00000040: 041b 323e f483 0abd 2690 72bc bd4c 4ebd
00000050: 21b5 623c 4ebe a73d 1263 183e 1763 83bd
00000060: 1d23 17be bb50 eb3c 11ab 14bc a6dc 243e
00000070: da99 6abd 74ed 843d 9434 10be 9586 053e
00000080: 80cb b7bd be81 383e ec47 58bd e0f9 3fbd
00000090: 33f2 29bd dc0c b0bd aed6 ca3c ed2b 17bd
000000a0: ca20 5f3c 323b 04bd d945 403e 7dc8 983b
000000b0: 0715 0e3d 68c3 783d 7ac2 66bb d9d7 163d
000000c0: aa71 02bd ab25 92bd 436a 9d3c 61ee e3bc
000000d0: 3d3f c83c 47db 98bc ab4c 00bd 7f47 393d
000000e0: 3a5b 6c3e 81ab 983d baa8 953c 0def 833d
000000f0: 54e9 d0bc eed7 193d 915c b7bc f6c1 00bd
00000100: 3eec 2d3d 9b3d 573d 975f 0abd 1981 24bb
00000110: 0066 eebd 3adc 983c 7267 21bd 3f9b 163c
00000120: 8e20 b938 b4db c33c 6fce 3cbe f7cf 4b3d
00000130: d1ca 5abd c1fc a8b9 0546 133e 8cbf 87bd
00000140: 4c54 e13d 1536 c6bd 12a6 153d 6d4d f53c
00000150: ac3c 9cbd 0455 9bbd 8247 553d c821 093e
00000160: e767 d3bc c2c5 0f3d 2330 c1bd 586e cebd
00000170: e7fc f5bc 6525 e73d 2aa7 a5bc ac8f 803d
00000180: 94f5 8bbd ca7c 153c a448 b13d ed1a a13c
00000190: 04ca b0bd 6924 3f3c d42a 6a3d 1f48 163c
000001a0: 7d95 653c 9391 003d b033 883d b2c4 84ba
000001b0: 467f e73c 06ef 263d 211b 3bbd a80a 61bc
000001c0: e3dd 90bd 383f adbd f06f ae3c 212b bebc
000001d0: c6eb 343d 033f 473d dede 8c3d 626f cd3d
000001e0: e767 7bbd ff2c 0f3d 13e8 26bd 8ef4 843c
000001f0: dae2 9d3d a99c 0ebd add7 133d 5e38 c43c
00000200: dc07 a2bd e375 7c3c 656c 643d dbb1 4c3d
00000210: e443 8c3c 01d8 07be abbd 97bc 9318 b73d
00000220: 4793 7b3d effb 9abd a06a 153d d082 c73b
00000230: b06d a83d 9e72 62bb eee1 1bbc abfc 13bd
00000240: 1782 cb3c 16e4 813d 73c0 c33d d23c 6d3d
00000250: 894d 57bd cedd 2a3c 3a01 773d 1d90 9fbc
00000260: 96aa 5c3d 8c67 af3b 8d92 59bc 49d0 123c
00000270: b934 923d 271c e3bd 1a26 c13d 651e 123d
00000280: 85eb 553c 050b 6fbd 1b09 9b3d a9e6 573d
00000290: 13c5 b1bc 6ef8 2e3c 42d1 223d 3b96 e6bc
000002a0: 158b 8a3d cacf ae3d eca8 b33d cb82 773d
000002b0: eb33 163c beeb 273c 136a c6bc 8ba4 b13d
000002c0: f282 1bbc 0cff 5ebd 4051 b63b e83b 0e3d
000002d0: 37bf dc3d 2338 5b3b 8613 2bb8 345f 573d
000002e0: c82b 22bd 561e 903d 7311 2a3c 23ca d7bc
000002f0: 4de1 743b 61fc 60bc b00f 0cbc 1e82 943d
00000300: 0d60 85bd 508e 5fbc 7aa1 363d b2ff 573d
00000310: 6769 e1bd 88b1 1dbb c8e5 55bd e28d 55bd
00000320: e8eb bf3c 8c05 0ebe f055 163b ceb0 ccbd
00000330: 5572 bf3d 1182 5e3d 1b7f acbd 7e47 12bd
00000340: 314d 37bd 4292 b33d d448 81bd f6ff c73d
00000350: 6d2c fc3c 68bd 90bd 0f3b 613c 3807 503d
00000360: 8616 243d 8bec 01bd 9ae8 ad3d 44b9 c0bd
00000370: 9de0 b7bb 89bd 05bd 5bcd cd3d 8e1f 8abd
00000380: 1c7a 27be 817e 4d3d 1b4d e9bd a87c efbd
00000390: ba30 713d 2002 a4bb 039d 39bd bffa b33d
000003a0: a5aa f1bc 27ad bbbc 6a4c a9bc e7da a33b
000003b0: 47f5 8dbc ce63 8bbc a74a 9abd 6d50 16bd
000003c0: 4740 9bba a205 94bc 8bd5 98bc 88d1 b13d
000003d0: 4a3d 53bd c3bd 2e3c da95 1ebb 4e3b 5f3d
000003e0: 4d5b d93b 20dc 7a3d ef7c 0dbd 06f2 83bb
000003f0: c071 98bd bf17 b53c 7a74 193d e147 a4bc

arith.constant9 f4 [64, 32]
0.0598226 -0.016076582 -0.06935712 -0.023486927 0.052517783 -0.039811514 0.03745142 -0.053603634
-0.012646881 -0.019244017 0.0064486777 0.056948874 0.070646584 -0.038549777 0.03338758 -0.036550906
-0.009751638 0.0030115454 -0.072484374 0.015659168 -0.087669805 -0.023726756 0.05823852 0.014974664
-0.10442731 0.017188322 -0.029649178 -0.004069301 -0.039998088 -0.0388423 0.07880744 0.09150488
0.022619948 -0.033303265 0.05402002 0.003407408 0.06500066 0.01765369 0.13477989 0.028416384
-0.014355486 -0.018431993 0.04998594 -0.08955725 -0.047503237 0.019060744 -0.0073176976 -0.0039941682
0.0117871035 0.012350871 -0.101714015 0.03057161 0.009646204 0.026473401 -0.082076885 0.01887258
-0.06312688 -0.034390785 -0.011076602 0.10637446 -0.028310062 0.035095632 -0.0054889694 -0.10833281
0.0021844674 0.046372898 0.039543066 0.05795964 -0.04601052 -0.056890044 -0.07518732 0.024487367
0.00020733832 0.041842237 0.022316258 0.0091808075 -0.08556405 -0.05549976 0.043207172 -0.0465324
-0.08979585 -0.013725029 -0.0032828301 -0.036606576 0.02748728 0.091917716 -0.032715563 0.08868742
-0.008876268 -0.05865867 0.05912401 -0.008727385 -0.0054473723 -0.11817124 0.0133335395 0.021331558
-0.047868717 -0.09176544 -0.08952352 0.05413883 0.07103445 -0.019317849 -0.029290173 0.04427081
-0.01623421 0.052757762 0.089127265 0.0742409 -0.029454896 -0.035905004 -0.029449573 -0.05964308
-0.011917645 0.0036661176 -0.04656515 0.0036694808 -0.11328758 -0.08739621 0.043620385 0.005524688
0.06318465 0.0034230084 0.044276714 -0.07435214 -0.007126341 0.03412777 -0.007464853 -0.027145715
-0.00059885817 0.0088314125 -0.069356106 0.0046692113 -0.091273785 -0.020904122 -0.07508945 0.021802997
-0.065155864 0.018050596 -0.01995148 -0.01367046 0.024255846 -0.010041483 0.08543551 0.047499593
0.00940818 -0.017794423 0.014493061 0.013769373 -0.021317845 0.03111163 -0.04515891 -0.010043109
0.02051052 -0.023849072 -0.018371193 0.028381063 -0.008052646 -0.000782081 -0.0034950618 0.03754432
-0.075029016 0.02814439 -0.06802936 -0.02758447 -0.07891617 0.021894779 0.021161843 0.022822846
-0.06710405 -0.00630846 0.01649097 -0.0420949 0.06748172 -0.018535769 -0.01205537 -0.057391174
-0.019382348 0.031084782 0.028545775 0.033029966 0.013242846 -0.041027218 0.0047980677 -0.006069025
0.032727838 -0.033465907 0.010150526 0.038127583 0.015005723 -0.0020031491 0.002320694 -0.0076800836
0.03716418 -0.0039032851 -0.03564914 0.08527231 0.05539313 -0.030152885 -0.007354643 -0.06163331
-0.023096025 0.022365669 0.04340179 -0.015686415 0.07949557 0.025028441 0.056490984 0.013914383
0.054657508 -0.10530083 0.001366322 -0.004287509 -0.08824369 0.012206311 -0.014071272 -0.030727966
-0.04032718 0.019564247 -0.022802465 -0.116761506 0.016849382 0.06972989 0.0627338 -0.041786242
0.0023552396 -0.07153327 0.10847665 -0.02574228 0.06353812 0.04345585 0.010185187 0.027840365
0.02168759 -0.056466725 -0.12332323 -0.039595034 0.10288922 0.05613944 -0.02989263 -0.025176799
-0.009866921 -0.09136358 -0.013622424 -0.009440744 -0.22898524 -0.06268275 -0.061711475 0.043791622
0.02877187 -0.04323205 0.039552715 0.017287327 -0.070315026 -0.005690545 -0.031170405 -0.03160343
00000000: 8b08 753d 09b3 83bc 1b0b 8ebd a867 c0bc
00000010: e31c 573d 6611 23bd a966 193d 7c8f 5bbd
00000020: dd34 4fbc a1a5 9dbc 6e4f d33b 3943 693d
00000030: 28af 903d 5fe6 1dbd 6ac1 083d 67b6 15bd
00000040: 56c5 1fbc 595d 453b b072 94bd a847 803c
00000050: 3a8c b3bd 9d5e c2bc 848b 6e3d 4b58 753c
00000060: fcdd d5bd 86ce 8c3c d5e2 f2bc c557 85bb
00000070: 09d5 23bd 1b19 1fbd cc65 a13d e966 bb3d
00000080: 784d b93c 0169 08bd 1944 5d3d d24e 5f3b
00000090: 111f 853d 799e 903c bd03 0a3e 7ac9 e83c
000000a0: 4633 6bbc b1fe 96bc 0fbe 4c3d cb69 b7bd
000000b0: c192 42bd 4725 9c3c 4cc9 efbb 83e1 82bb
000000c0: b21e 413c 4f5b 4a3c 704f d0bd 5071 fa3c
000000d0: 1d0b 1e3c bfde d83c ed17 a8bd ab9a 9a3c
000000e0: aa48 81bd 5add 0cbd a37a 35bc dada d93d
000000f0: 81ea e7bc 70c0 0f3d d0dc b3bb 98dd ddbd
00000100: 4829 0f3b 82f1 3d3d e9f7 213d 1667 6d3d
00000110: 8775 3cbd 8905 69bd cffb 99bd bb99 c83c
00000120: f568 5939 c462 2b3d 96d0 b63c 196b 163c
00000130: 343c afbd b753 63bd 01fa 303d c298 3ebd
00000140: e3e6 b7bd f2de 60bc c024 57bb c7f0 15bd
00000150: 012d e13c 5b3f bc3d c100 06bd c0a1 b53d
00000160: c46d 11bc 1344 70bd 052c 723d 4efd 0ebc
00000170: df7f b2bb c303 f2bd eb74 5a3c 85bf ae3c
00000180: fd11 44bd 85ef bbbd 1b58 b7bd aec0 5d3d
00000190: 827a 913d 7740 9ebc f2f1 efbc 4f55 353d
000001a0: 9bfd 84bc 8618 583d 5b88 b63d 9d0b 983d
000001b0: 654b f1bc 2011 13bd 3b40 f1bc 4d4c 74bd
000001c0: 3a42 43bc 3f43 703b 19bb 3ebd ac7b 703b
000001d0: 5203 e8bd c9fc b2bd 4aab 323d 7108 b53b
000001e0: f466 813d 8d54 603b 805b 353d ef45 98bd
000001f0: 1584 e9bb 90c9 0b3d ba9b f4bb b160 debc
00000200: b1fc 1cba a1b1 103c 930a 8ebd 2f00 993b
00000210: c0ed babd 1f3f abbc 7fc8 99bd 339c b23c
00000220: 7070 85bd d8de 933c 4971 a3bc 11fa 5fbc
00000230: 32b4 c63c 0885 24bc d0f8 ae3d ef8e 423d
00000240: c424 1a3c 9cc5 91bc 4e74 6d3c f098 613c
00000250: c3a2 aebc d1dd fe3c 8df8 38bd da8b 24bc
00000260: ae05 a83c 215f c3bc 2f7f 96bc 677f e83c
00000270: 3fef 03bc 9104 4dba 680d 65bb 13c8 193d
00000280: d0a8 99bd 108f e63c fa52 8bbd d4f8 e1bc
00000290: cd9e a1bd ae5c b33c 9a5b ad3c faf6 ba3c
000002a0: d96d 89bd 33b7 cebb 1218 873c b46b 2cbd
000002b0: db33 8a3d 53d8 97bc e383 45bc 0213 6bbd
000002c0: bbc7 9ebc 83a5 fe3c d4d8 e93c 6e4a 073d
000002d0: 86f8 583c 280c 28bd 1c39 9d3b acde c6bb
000002e0: a00d 063d 8c13 09bd 644e 263c ab2b 1c3d
000002f0: 90da 753c 4447 03bb c916 183b 36a9 fbbb
00000300: 7839 183d 42ce 7fbb d504 12bd 40a3 ae3d
00000310: e8e3 623d 2f03 f7bc 38ff f0bb 3673 7cbd
00000320: e033 bdbc 3538 b73c 13c6 313d cc80 80bc
00000330: 93ce a23d 7208 cd3c 1763 673d 27f9 633c
00000340: 8de0 5f3d f6a7 d7bd 2916 b33a 3b7e 8cbb
00000350: 1cb9 b4bd fbfc 473c 318b 66bc 37b9 fbbc
00000360: 1d2e 25bd 3345 a03c 3ccc babc a820 efbd
00000370: b707 8a3c 8bce 8e3d 947a 803d 0d28 2bbd
00000380: 5d5a 1a3b 0980 92bd 0229 de3d 79e1 d2bc
00000390: 4620 823d c3fe 313d c5df 263c 7a11 e43c
000003a0: 2caa b13c a749 67bd e490 fcbd 672e 22bd
000003b0: 95b7 d23d 78f2 653d 64e1 f4bc 933f cebc
000003c0: dea8 21bc d41c bbbd 9630 5fbc 5aad 1abc
000003d0: 1b7b 6abe d05f 80bd 2cc5 7cbd d85e 333d
000003e0: fcb2 eb3c 1714 31bd 0702 223d 279e 8d3c
000003f0: 5301 90bd c077 babb 1459 ffbc 9972 01bd

arith.constant10 f4 [32, 96]
0.00044912015 -0.045754984 0.018219914 0.012987994 0.009109379 0.0046964716 -0.0010127097 -0.024754874
0.0053315535 -0.03566229 0.0015065284 -0.010531813 -0.0039557405 0.0060569867 0.00020112889 0.0040842043
0.011813053 0.0037316158 0.012905623 -0.00074358005 -0.0015148058 -0.022647394 -0.020295678 0.00457112
-0.0028927983 0.01055395 0.007212975 -0.0013137138 -0.024441311 0.0003010119 -0.018222349 0.0080991825
-0.008964037 0.021631489 -0.018043945 -0.017944168 -0.01370721 -0.009602806 0.0039632735 -0.014475218
-0.0050592343 0.0049966946 0.0040024645 0.0013608068 0.003010281 -0.0152597055 -0.00048061484 -0.006082589
-0.012707235 -0.0044585154 -0.0029375565 0.016422158 0.01940319 0.011893908 0.0107125165 0.01837912
-0.009781498 0.0062486394 0.0040755044 -0.006653853 0.007984604 0.011129844 0.00639121 -0.0062500434
-0.01616438 0.009788349 0.018378071 0.0017777821 -0.0052435375 0.08683401 0.014703332 0.004328497
-0.007583969 0.004014627 0.021729391 0.016318839 0.0055052307 -0.001802156 -0.0043383837 0.011500118
0.022178788 0.027486634 0.017698715 0.012492306 0.028437335 0.02801885 -0.02938737 -0.0319237
0.017415581 -0.024086403 -0.014918689 -0.030207643 -0.005244016 0.010571348 -0.012180143 0.014985827
-0.007163855 -0.0014228633 0.003586564 -0.0027329354 0.005508729 0.0053348728 0.028825158 -8.777852e-05
0.0066029383 0.032470033 0.005939385 -0.02163485 0.031306714 -0.017944394 -0.012952743 -0.04968886
-0.017322788 -0.015657881 -0.0070292614 -0.014166524 0.038804423 0.015647074 -0.008302652 0.02853592
-0.011387682 -0.01436757 -0.027246173 0.00068009127 -0.0016857715 -0.013080773 -0.016738422 0.024869598
-0.0016520619 0.003764346 -0.003176419 0.006482897 -0.005268901 -0.02133945 -0.0022059483 0.01453917
-0.006994613 -0.0128259845 -0.0106095765 -0.00015933912 0.0019344599 -0.0036298407 0.02002414 0.0060850363
-0.0023525425 -0.0036257077 0.01139182 0.0062846984 0.01566584 0.0009034724 0.017766543 0.036776442
0.010955873 0.027844843 -0.0027039538 -0.0103397155 -0.0034952594 0.03938632 0.021065226 -0.009716443
0.016533729 0.08180435 -0.0016609256 -0.022102349 -0.004739863 -0.06805399 0.0067006545 0.011173336
0.0075754826 0.022819713 0.0070681423 0.022514729 -0.007587769 -0.023146676 0.035410576 -0.000486194
-0.021524308 -0.06342661 0.04220481 0.05409572 0.05853552 -0.034583956 0.00043308068 -0.061265588
0.005844629 -0.05370581 -0.024195235 0.033951905 0.008855311 0.010947034 -0.020799644 -0.02159248
0.0116905505 -0.032545507 0.0038335558 -0.033548642 0.01108678 -0.029168742 0.036711246 -0.025432603
-0.0015573041 -0.02231644 0.011987962 0.014655925 0.013069689 0.01866411 -0.0102675 -0.017277174
-0.014352489 0.013717248 -0.0023860163 -0.0015313004 -0.026369432 0.005027035 -0.00059429667 0.029014852
-0.0087169595 -0.02032578 -0.040120967 -0.012919709 0.0049035694 0.015481727 0.027573498 0.027296491
0.023827562 -0.011059645 -0.0037683337 0.005307784 -0.007161589 -0.025027586 0.026540281 -0.03191224
0.0017392336 -0.03631005 0.023046495 0.0053686746 -0.005296364 -0.0059176786 0.03100204 -0.008304164
0.01149958 -0.031840004 0.019746907 -0.007895173 -0.021008682 0.014111198 0.030483318 0.008203176
-0.011684739 -0.008434663 -0.011541207 -0.03707223 0.0020465713 0.015779534 0.0046195216 0.0051688505
00000000: e377 eb39 9469 3bbd ee41 953c 98cb 543c
00000010: 813f 153c dce4 993b e6bc 84ba bcca cabc
00000020: 50b4 ae3b 9f12 12bd b476 c53a a08d 2cbc
00000030: 289f 81bb b079 c63b 20e6 5239 cad4 853b
00000040: 898b 413c 208e 743b 1b72 533c d0ec 42ba
00000050: 738c c6ba 0787 b9bc 1f43 a6bc 55c9 953b
00000060: 1a95 3dbb 7aea 2c3c d25a ec3b ec30 acba
00000070: 2539 c8bc 22d1 9d39 0947 95bc 6fb2 043c
00000080: e5dd 12bc 8534 b13c e5d0 93bc a6ff 92bc
00000090: 3594 60bc 1655 1dbc 59de 813b 7729 6dbc
000000a0: efc7 a5bb 50bb a33b 1b27 833b 195d b23a
000000b0: 2248 453b d803 7abc 08fb fbb9 7450 c7bb
000000c0: 0232 50bc bd18 92bb 0584 40bb c387 863c
000000d0: 70f3 9e3c aade 423c 8d83 2f3c cf8f 963c
000000e0: 9442 20bc 63c1 cc3b cf8b 853b 9108 dabb
000000f0: dbd1 023c f359 363c 5b6d d13b 2acd ccbb
00000100: 296b 84bc 505f 203c 9c8d 963c 7804 e93a
00000110: fbd1 abbb 08d6 b13d 3fe6 703c 11d6 8d3b
00000120: f182 f8bb 228d 833b d601 b23c 16af 853c
00000130: 3965 b43b 5236 ecba 0029 8ebb fe6a 3c3c
00000140: 4ab0 b53c a62b e13c e5fc 903c 87ac 4c3c
00000150: 6af5 e83c ca87 e53c c8bd f0bc 6dc2 02bd
00000160: 1fab 8e3c d950 c5bc 846d 74bc 0576 f7bc
00000170: ffd5 abbb 7233 2d3c 398f 47bc 1d87 753c
00000180: c5be eabb 5f7f baba 8f0c 6b3b 0c1b 33bb
00000190: 9182 b43b 28d0 ae3b bd22 ec3c bc15 b8b8
000001a0: 765d d83b 4cff 043d 2c9f c23b 923b b1bc
000001b0: 783b 003d 1f00 93bc be37 54bc 8c86 4bbd
000001c0: 85e8 8dbc f544 80bc b855 e6bb b51a 68bc
000001d0: 63f1 1e3d 4b2e 803c d907 08bc 29c4 e93c
000001e0: 6693 3abc f565 6bbc 5e33 dfbc 2748 323a
000001f0: 1bf5 dcba bd50 56bc 041f 89bc 54bb cb3c
00000200: 008a d8ba 3fb3 763b 782b 50bb 7b6e d43b
00000210: bfa6 acbb 12d0 aebc ac91 10bb b335 6e3c
00000220: 1133 e5bb 1424 52bc cad3 2dbc 4514 27b9
00000230: b48d fd3a 9fe2 6dbb aa09 a43c fc64 c73b
00000240: 1d2d 1abb 489d 6dbb c2a4 3a3c dfef cd3b
00000250: a655 803c 02d7 6c3a 248b 913c e5a2 163d
00000260: 4380 333c de1a e43c d134 31bb e967 29bc
00000270: b910 65bb 8d53 213d fb90 ac3c b731 1fbc
00000280: be71 873c 0a89 a73d 6ab3 d9ba fc0f b5bc
00000290: da50 9bbb e45f 8bbd 2a91 db3b 5e10 373c
000002a0: c13b f83b 68f0 ba3c e09b e73b cf70 b83c
000002b0: d2a2 f8bb 199e bdbc ae0a 113d dbe7 feb9
000002c0: bf53 b0bc cfe5 81bd f3de 2c3d 7993 5d3d
000002d0: f1c2 6f3d e8a7 0dbd 1b0f e339 a0f1 7abd
000002e0: 4d84 bf3b a0fa 5bbd 1635 c6bc 2711 0b3d
000002f0: de15 113c 305b 333c 0464 aabc b6e2 b0bc
00000300: b989 3f3c 704e 05bd 653c 7b3b 4d6a 09bd
00000310: 53a5 353c 49f3 eebc 885e 163d 0958 d0bc
00000320: 741e ccba f7d0 b6bc 2869 443c 681f 703c
00000330: 4022 563c 7ae5 983c 0439 28bc dc88 8dbc
00000340: b426 6bbc 4fbe 603c b65e 1cbb eab5 c8ba
00000350: b504 d8bc d3b9 a43b 93ca 1bba 8eb0 ed3c
00000360: 94d1 0ebc 4082 a6bc e255 24bd 30ad 53bc
00000370: 1fae a03b 12a7 7d3c d1e1 e13c e49c df3c
00000380: 0532 c33c 8333 35bc 26f6 76bb ebec ad3b
00000390: c3ab eabb a706 cdbc 016b d93c 69b6 02bd
000003a0: fff6 e33a d9b9 14bd 01cc bc3c b5eb af3b
000003b0: 1f8d adbb 16e9 c1bb fdf7 fd3c 300e 08bc
000003c0: bc68 3c3c aa6a 02bd 44c4 a13c c15a 01bc
000003d0: 661a acbc a732 673c 27b8 f93c 9d66 063c
000003e0: 5971 3fbc 8a31 0abc 5517 3dbc 0dd9 17bd
000003f0: c51f 063b 1544 813c 5b5f 973b 765f a93b
